<?xml version="1.0" ?>
<net name="torch-jit-export" version="11">
	<layers>
		<layer id="2" name="input_seq" type="Parameter" version="opset1">
			<data shape="1,512" element_type="i64"/>
			<rt_info>
				<attribute name="fused_names" version="0" value="input_seq"/>
				<attribute name="old_api_map_element_type" version="0" value="i32"/>
			</rt_info>
			<output>
				<port id="0" precision="I64" names="input_seq">
					<dim>1</dim>
					<dim>512</dim>
					<rt_info>
						<attribute name="layout" version="0" layout="[N,C]"/>
					</rt_info>
				</port>
			</output>
		</layer>
		<layer id="1" name="input_mask" type="Parameter" version="opset1">
			<data shape="1,1,512" element_type="f32"/>
			<rt_info>
				<attribute name="fused_names" version="0" value="input_mask"/>
				<attribute name="old_api_map_element_type" version="0" value="f16"/>
			</rt_info>
			<output>
				<port id="0" precision="FP32" names="input_mask">
					<dim>1</dim>
					<dim>1</dim>
					<dim>512</dim>
					<rt_info>
						<attribute name="layout" version="0" layout="[N,D,C]"/>
					</rt_info>
				</port>
			</output>
		</layer>
		<layer id="0" name="pos_mask" type="Parameter" version="opset1">
			<data shape="1,1,512,512" element_type="f32"/>
			<rt_info>
				<attribute name="fused_names" version="0" value="pos_mask"/>
				<attribute name="old_api_map_element_type" version="0" value="f16"/>
			</rt_info>
			<output>
				<port id="0" precision="FP32" names="pos_mask">
					<dim>1</dim>
					<dim>1</dim>
					<dim>512</dim>
					<dim>512</dim>
					<rt_info>
						<attribute name="layout" version="0" layout="[N,D,C,W]"/>
					</rt_info>
				</port>
			</output>
		</layer>
		<layer id="3" name="model.embedding.weight_compressed" type="Const" version="opset1">
			<data element_type="f16" shape="148, 256" offset="0" size="75776"/>
			<output>
				<port id="0" precision="FP16">
					<dim>148</dim>
					<dim>256</dim>
				</port>
			</output>
		</layer>
		<layer id="4" name="model.embedding.weight" type="Convert" version="opset1">
			<data destination_type="f32"/>
			<rt_info>
				<attribute name="decompression" version="0"/>
				<attribute name="fused_names" version="0" value="model.embedding.weight"/>
			</rt_info>
			<input>
				<port id="0" precision="FP16">
					<dim>148</dim>
					<dim>256</dim>
				</port>
			</input>
			<output>
				<port id="1" precision="FP32" names="model.embedding.weight">
					<dim>148</dim>
					<dim>256</dim>
				</port>
			</output>
		</layer>
		<layer id="5" name="Constant_257" type="Const" version="opset1">
			<data element_type="i64" shape="" offset="75776" size="8"/>
			<rt_info>
				<attribute name="fused_names" version="0" value="Constant_257"/>
			</rt_info>
			<output>
				<port id="0" precision="I64"/>
			</output>
		</layer>
		<layer id="6" name="402" type="Gather" version="opset8">
			<data batch_dims="0"/>
			<rt_info>
				<attribute name="fused_names" version="0" value="402"/>
			</rt_info>
			<input>
				<port id="0" precision="FP32">
					<dim>148</dim>
					<dim>256</dim>
				</port>
				<port id="1" precision="I64">
					<dim>1</dim>
					<dim>512</dim>
				</port>
				<port id="2" precision="I64"/>
			</input>
			<output>
				<port id="3" precision="FP32" names="402">
					<dim>1</dim>
					<dim>512</dim>
					<dim>256</dim>
				</port>
			</output>
		</layer>
		<layer id="7" name="Constant_259" type="Const" version="opset1">
			<data element_type="i64" shape="3" offset="75784" size="24"/>
			<rt_info>
				<attribute name="fused_names" version="0" value="Constant_259"/>
			</rt_info>
			<output>
				<port id="0" precision="I64">
					<dim>3</dim>
				</port>
			</output>
		</layer>
		<layer id="8" name="403" type="Transpose" version="opset1">
			<rt_info>
				<attribute name="fused_names" version="0" value="403"/>
			</rt_info>
			<input>
				<port id="0" precision="FP32">
					<dim>1</dim>
					<dim>512</dim>
					<dim>256</dim>
				</port>
				<port id="1" precision="I64">
					<dim>3</dim>
				</port>
			</input>
			<output>
				<port id="2" precision="FP32" names="403">
					<dim>1</dim>
					<dim>256</dim>
					<dim>512</dim>
				</port>
			</output>
		</layer>
		<layer id="9" name="model.dur_pred.convs.0.conv.weight_compressed" type="Const" version="opset1">
			<data element_type="f16" shape="256, 256, 5" offset="75808" size="655360"/>
			<output>
				<port id="0" precision="FP16">
					<dim>256</dim>
					<dim>256</dim>
					<dim>5</dim>
				</port>
			</output>
		</layer>
		<layer id="10" name="model.dur_pred.convs.0.conv.weight" type="Convert" version="opset1">
			<data destination_type="f32"/>
			<rt_info>
				<attribute name="decompression" version="0"/>
				<attribute name="fused_names" version="0" value="model.dur_pred.convs.0.conv.weight"/>
			</rt_info>
			<input>
				<port id="0" precision="FP16">
					<dim>256</dim>
					<dim>256</dim>
					<dim>5</dim>
				</port>
			</input>
			<output>
				<port id="1" precision="FP32" names="model.dur_pred.convs.0.conv.weight">
					<dim>256</dim>
					<dim>256</dim>
					<dim>5</dim>
				</port>
			</output>
		</layer>
		<layer id="11" name="404" type="Convolution" version="opset1">
			<data strides="1" dilations="1" pads_begin="2" pads_end="2" auto_pad="explicit"/>
			<rt_info>
				<attribute name="fused_names" version="0" value="404"/>
			</rt_info>
			<input>
				<port id="0" precision="FP32">
					<dim>1</dim>
					<dim>256</dim>
					<dim>512</dim>
				</port>
				<port id="1" precision="FP32">
					<dim>256</dim>
					<dim>256</dim>
					<dim>5</dim>
				</port>
			</input>
			<output>
				<port id="2" precision="FP32" names="404">
					<dim>1</dim>
					<dim>256</dim>
					<dim>512</dim>
				</port>
			</output>
		</layer>
		<layer id="12" name="405" type="ReLU" version="opset1">
			<rt_info>
				<attribute name="fused_names" version="0" value="405"/>
			</rt_info>
			<input>
				<port id="0" precision="FP32">
					<dim>1</dim>
					<dim>256</dim>
					<dim>512</dim>
				</port>
			</input>
			<output>
				<port id="1" precision="FP32" names="405">
					<dim>1</dim>
					<dim>256</dim>
					<dim>512</dim>
				</port>
			</output>
		</layer>
		<layer id="13" name="Constant_20761_compressed" type="Const" version="opset1">
			<data element_type="f16" shape="1, 256, 1" offset="731168" size="512"/>
			<output>
				<port id="0" precision="FP16">
					<dim>1</dim>
					<dim>256</dim>
					<dim>1</dim>
				</port>
			</output>
		</layer>
		<layer id="14" name="Constant_20761" type="Convert" version="opset1">
			<data destination_type="f32"/>
			<rt_info>
				<attribute name="decompression" version="0"/>
				<attribute name="fused_names" version="0" value="406, model.dur_pred.convs.0.bnorm.bias, model.dur_pred.convs.0.bnorm.running_mean, model.dur_pred.convs.0.bnorm.running_var, model.dur_pred.convs.0.bnorm.weight"/>
			</rt_info>
			<input>
				<port id="0" precision="FP16">
					<dim>1</dim>
					<dim>256</dim>
					<dim>1</dim>
				</port>
			</input>
			<output>
				<port id="1" precision="FP32">
					<dim>1</dim>
					<dim>256</dim>
					<dim>1</dim>
				</port>
			</output>
		</layer>
		<layer id="15" name="Multiply_21373" type="Multiply" version="opset1">
			<data auto_broadcast="numpy"/>
			<rt_info>
				<attribute name="fused_names" version="0" value="406, model.dur_pred.convs.0.bnorm.bias, model.dur_pred.convs.0.bnorm.running_mean, model.dur_pred.convs.0.bnorm.running_var, model.dur_pred.convs.0.bnorm.weight"/>
			</rt_info>
			<input>
				<port id="0" precision="FP32">
					<dim>1</dim>
					<dim>256</dim>
					<dim>512</dim>
				</port>
				<port id="1" precision="FP32">
					<dim>1</dim>
					<dim>256</dim>
					<dim>1</dim>
				</port>
			</input>
			<output>
				<port id="2" precision="FP32">
					<dim>1</dim>
					<dim>256</dim>
					<dim>512</dim>
				</port>
			</output>
		</layer>
		<layer id="16" name="Constant_21378_compressed" type="Const" version="opset1">
			<data element_type="f16" shape="1, 256, 1" offset="731680" size="512"/>
			<output>
				<port id="0" precision="FP16">
					<dim>1</dim>
					<dim>256</dim>
					<dim>1</dim>
				</port>
			</output>
		</layer>
		<layer id="17" name="Constant_21378" type="Convert" version="opset1">
			<data destination_type="f32"/>
			<rt_info>
				<attribute name="decompression" version="0"/>
			</rt_info>
			<input>
				<port id="0" precision="FP16">
					<dim>1</dim>
					<dim>256</dim>
					<dim>1</dim>
				</port>
			</input>
			<output>
				<port id="1" precision="FP32">
					<dim>1</dim>
					<dim>256</dim>
					<dim>1</dim>
				</port>
			</output>
		</layer>
		<layer id="18" name="406" type="Add" version="opset1">
			<data auto_broadcast="numpy"/>
			<rt_info>
				<attribute name="fused_names" version="0" value="406, model.dur_pred.convs.0.bnorm.bias, model.dur_pred.convs.0.bnorm.running_mean, model.dur_pred.convs.0.bnorm.running_var, model.dur_pred.convs.0.bnorm.weight"/>
			</rt_info>
			<input>
				<port id="0" precision="FP32">
					<dim>1</dim>
					<dim>256</dim>
					<dim>512</dim>
				</port>
				<port id="1" precision="FP32">
					<dim>1</dim>
					<dim>256</dim>
					<dim>1</dim>
				</port>
			</input>
			<output>
				<port id="2" precision="FP32" names="406">
					<dim>1</dim>
					<dim>256</dim>
					<dim>512</dim>
				</port>
			</output>
		</layer>
		<layer id="19" name="model.dur_pred.convs.1.conv.weight_compressed" type="Const" version="opset1">
			<data element_type="f16" shape="256, 256, 5" offset="732192" size="655360"/>
			<output>
				<port id="0" precision="FP16">
					<dim>256</dim>
					<dim>256</dim>
					<dim>5</dim>
				</port>
			</output>
		</layer>
		<layer id="20" name="model.dur_pred.convs.1.conv.weight" type="Convert" version="opset1">
			<data destination_type="f32"/>
			<rt_info>
				<attribute name="decompression" version="0"/>
				<attribute name="fused_names" version="0" value="model.dur_pred.convs.1.conv.weight"/>
			</rt_info>
			<input>
				<port id="0" precision="FP16">
					<dim>256</dim>
					<dim>256</dim>
					<dim>5</dim>
				</port>
			</input>
			<output>
				<port id="1" precision="FP32" names="model.dur_pred.convs.1.conv.weight">
					<dim>256</dim>
					<dim>256</dim>
					<dim>5</dim>
				</port>
			</output>
		</layer>
		<layer id="21" name="407" type="Convolution" version="opset1">
			<data strides="1" dilations="1" pads_begin="2" pads_end="2" auto_pad="explicit"/>
			<rt_info>
				<attribute name="fused_names" version="0" value="407"/>
			</rt_info>
			<input>
				<port id="0" precision="FP32">
					<dim>1</dim>
					<dim>256</dim>
					<dim>512</dim>
				</port>
				<port id="1" precision="FP32">
					<dim>256</dim>
					<dim>256</dim>
					<dim>5</dim>
				</port>
			</input>
			<output>
				<port id="2" precision="FP32" names="407">
					<dim>1</dim>
					<dim>256</dim>
					<dim>512</dim>
				</port>
			</output>
		</layer>
		<layer id="22" name="408" type="ReLU" version="opset1">
			<rt_info>
				<attribute name="fused_names" version="0" value="408"/>
			</rt_info>
			<input>
				<port id="0" precision="FP32">
					<dim>1</dim>
					<dim>256</dim>
					<dim>512</dim>
				</port>
			</input>
			<output>
				<port id="1" precision="FP32" names="408">
					<dim>1</dim>
					<dim>256</dim>
					<dim>512</dim>
				</port>
			</output>
		</layer>
		<layer id="23" name="Constant_20887_compressed" type="Const" version="opset1">
			<data element_type="f16" shape="1, 256, 1" offset="1387552" size="512"/>
			<output>
				<port id="0" precision="FP16">
					<dim>1</dim>
					<dim>256</dim>
					<dim>1</dim>
				</port>
			</output>
		</layer>
		<layer id="24" name="Constant_20887" type="Convert" version="opset1">
			<data destination_type="f32"/>
			<rt_info>
				<attribute name="decompression" version="0"/>
				<attribute name="fused_names" version="0" value="409, model.dur_pred.convs.1.bnorm.bias, model.dur_pred.convs.1.bnorm.running_mean, model.dur_pred.convs.1.bnorm.running_var, model.dur_pred.convs.1.bnorm.weight"/>
			</rt_info>
			<input>
				<port id="0" precision="FP16">
					<dim>1</dim>
					<dim>256</dim>
					<dim>1</dim>
				</port>
			</input>
			<output>
				<port id="1" precision="FP32">
					<dim>1</dim>
					<dim>256</dim>
					<dim>1</dim>
				</port>
			</output>
		</layer>
		<layer id="25" name="Multiply_21380" type="Multiply" version="opset1">
			<data auto_broadcast="numpy"/>
			<rt_info>
				<attribute name="fused_names" version="0" value="409, model.dur_pred.convs.1.bnorm.bias, model.dur_pred.convs.1.bnorm.running_mean, model.dur_pred.convs.1.bnorm.running_var, model.dur_pred.convs.1.bnorm.weight"/>
			</rt_info>
			<input>
				<port id="0" precision="FP32">
					<dim>1</dim>
					<dim>256</dim>
					<dim>512</dim>
				</port>
				<port id="1" precision="FP32">
					<dim>1</dim>
					<dim>256</dim>
					<dim>1</dim>
				</port>
			</input>
			<output>
				<port id="2" precision="FP32">
					<dim>1</dim>
					<dim>256</dim>
					<dim>512</dim>
				</port>
			</output>
		</layer>
		<layer id="26" name="Constant_21385_compressed" type="Const" version="opset1">
			<data element_type="f16" shape="1, 256, 1" offset="1388064" size="512"/>
			<output>
				<port id="0" precision="FP16">
					<dim>1</dim>
					<dim>256</dim>
					<dim>1</dim>
				</port>
			</output>
		</layer>
		<layer id="27" name="Constant_21385" type="Convert" version="opset1">
			<data destination_type="f32"/>
			<rt_info>
				<attribute name="decompression" version="0"/>
			</rt_info>
			<input>
				<port id="0" precision="FP16">
					<dim>1</dim>
					<dim>256</dim>
					<dim>1</dim>
				</port>
			</input>
			<output>
				<port id="1" precision="FP32">
					<dim>1</dim>
					<dim>256</dim>
					<dim>1</dim>
				</port>
			</output>
		</layer>
		<layer id="28" name="409" type="Add" version="opset1">
			<data auto_broadcast="numpy"/>
			<rt_info>
				<attribute name="fused_names" version="0" value="409, model.dur_pred.convs.1.bnorm.bias, model.dur_pred.convs.1.bnorm.running_mean, model.dur_pred.convs.1.bnorm.running_var, model.dur_pred.convs.1.bnorm.weight"/>
			</rt_info>
			<input>
				<port id="0" precision="FP32">
					<dim>1</dim>
					<dim>256</dim>
					<dim>512</dim>
				</port>
				<port id="1" precision="FP32">
					<dim>1</dim>
					<dim>256</dim>
					<dim>1</dim>
				</port>
			</input>
			<output>
				<port id="2" precision="FP32" names="409">
					<dim>1</dim>
					<dim>256</dim>
					<dim>512</dim>
				</port>
			</output>
		</layer>
		<layer id="29" name="model.dur_pred.convs.2.conv.weight_compressed" type="Const" version="opset1">
			<data element_type="f16" shape="256, 256, 5" offset="1388576" size="655360"/>
			<output>
				<port id="0" precision="FP16">
					<dim>256</dim>
					<dim>256</dim>
					<dim>5</dim>
				</port>
			</output>
		</layer>
		<layer id="30" name="model.dur_pred.convs.2.conv.weight" type="Convert" version="opset1">
			<data destination_type="f32"/>
			<rt_info>
				<attribute name="decompression" version="0"/>
				<attribute name="fused_names" version="0" value="model.dur_pred.convs.2.conv.weight"/>
			</rt_info>
			<input>
				<port id="0" precision="FP16">
					<dim>256</dim>
					<dim>256</dim>
					<dim>5</dim>
				</port>
			</input>
			<output>
				<port id="1" precision="FP32" names="model.dur_pred.convs.2.conv.weight">
					<dim>256</dim>
					<dim>256</dim>
					<dim>5</dim>
				</port>
			</output>
		</layer>
		<layer id="31" name="410" type="Convolution" version="opset1">
			<data strides="1" dilations="1" pads_begin="2" pads_end="2" auto_pad="explicit"/>
			<rt_info>
				<attribute name="fused_names" version="0" value="410"/>
			</rt_info>
			<input>
				<port id="0" precision="FP32">
					<dim>1</dim>
					<dim>256</dim>
					<dim>512</dim>
				</port>
				<port id="1" precision="FP32">
					<dim>256</dim>
					<dim>256</dim>
					<dim>5</dim>
				</port>
			</input>
			<output>
				<port id="2" precision="FP32" names="410">
					<dim>1</dim>
					<dim>256</dim>
					<dim>512</dim>
				</port>
			</output>
		</layer>
		<layer id="32" name="411" type="ReLU" version="opset1">
			<rt_info>
				<attribute name="fused_names" version="0" value="411"/>
			</rt_info>
			<input>
				<port id="0" precision="FP32">
					<dim>1</dim>
					<dim>256</dim>
					<dim>512</dim>
				</port>
			</input>
			<output>
				<port id="1" precision="FP32" names="411">
					<dim>1</dim>
					<dim>256</dim>
					<dim>512</dim>
				</port>
			</output>
		</layer>
		<layer id="33" name="Constant_21013_compressed" type="Const" version="opset1">
			<data element_type="f16" shape="1, 256, 1" offset="2043936" size="512"/>
			<output>
				<port id="0" precision="FP16">
					<dim>1</dim>
					<dim>256</dim>
					<dim>1</dim>
				</port>
			</output>
		</layer>
		<layer id="34" name="Constant_21013" type="Convert" version="opset1">
			<data destination_type="f32"/>
			<rt_info>
				<attribute name="decompression" version="0"/>
				<attribute name="fused_names" version="0" value="412, model.dur_pred.convs.2.bnorm.bias, model.dur_pred.convs.2.bnorm.running_mean, model.dur_pred.convs.2.bnorm.running_var, model.dur_pred.convs.2.bnorm.weight"/>
			</rt_info>
			<input>
				<port id="0" precision="FP16">
					<dim>1</dim>
					<dim>256</dim>
					<dim>1</dim>
				</port>
			</input>
			<output>
				<port id="1" precision="FP32">
					<dim>1</dim>
					<dim>256</dim>
					<dim>1</dim>
				</port>
			</output>
		</layer>
		<layer id="35" name="Multiply_21387" type="Multiply" version="opset1">
			<data auto_broadcast="numpy"/>
			<rt_info>
				<attribute name="fused_names" version="0" value="412, model.dur_pred.convs.2.bnorm.bias, model.dur_pred.convs.2.bnorm.running_mean, model.dur_pred.convs.2.bnorm.running_var, model.dur_pred.convs.2.bnorm.weight"/>
			</rt_info>
			<input>
				<port id="0" precision="FP32">
					<dim>1</dim>
					<dim>256</dim>
					<dim>512</dim>
				</port>
				<port id="1" precision="FP32">
					<dim>1</dim>
					<dim>256</dim>
					<dim>1</dim>
				</port>
			</input>
			<output>
				<port id="2" precision="FP32">
					<dim>1</dim>
					<dim>256</dim>
					<dim>512</dim>
				</port>
			</output>
		</layer>
		<layer id="36" name="Constant_21392_compressed" type="Const" version="opset1">
			<data element_type="f16" shape="1, 256, 1" offset="2044448" size="512"/>
			<output>
				<port id="0" precision="FP16">
					<dim>1</dim>
					<dim>256</dim>
					<dim>1</dim>
				</port>
			</output>
		</layer>
		<layer id="37" name="Constant_21392" type="Convert" version="opset1">
			<data destination_type="f32"/>
			<rt_info>
				<attribute name="decompression" version="0"/>
			</rt_info>
			<input>
				<port id="0" precision="FP16">
					<dim>1</dim>
					<dim>256</dim>
					<dim>1</dim>
				</port>
			</input>
			<output>
				<port id="1" precision="FP32">
					<dim>1</dim>
					<dim>256</dim>
					<dim>1</dim>
				</port>
			</output>
		</layer>
		<layer id="38" name="412" type="Add" version="opset1">
			<data auto_broadcast="numpy"/>
			<rt_info>
				<attribute name="fused_names" version="0" value="412, model.dur_pred.convs.2.bnorm.bias, model.dur_pred.convs.2.bnorm.running_mean, model.dur_pred.convs.2.bnorm.running_var, model.dur_pred.convs.2.bnorm.weight"/>
			</rt_info>
			<input>
				<port id="0" precision="FP32">
					<dim>1</dim>
					<dim>256</dim>
					<dim>512</dim>
				</port>
				<port id="1" precision="FP32">
					<dim>1</dim>
					<dim>256</dim>
					<dim>1</dim>
				</port>
			</input>
			<output>
				<port id="2" precision="FP32" names="412">
					<dim>1</dim>
					<dim>256</dim>
					<dim>512</dim>
				</port>
			</output>
		</layer>
		<layer id="39" name="416" type="Multiply" version="opset1">
			<data auto_broadcast="numpy"/>
			<rt_info>
				<attribute name="fused_names" version="0" value="416"/>
			</rt_info>
			<input>
				<port id="0" precision="FP32">
					<dim>1</dim>
					<dim>256</dim>
					<dim>512</dim>
				</port>
				<port id="1" precision="FP32">
					<dim>1</dim>
					<dim>1</dim>
					<dim>512</dim>
				</port>
			</input>
			<output>
				<port id="2" precision="FP32" names="416">
					<dim>1</dim>
					<dim>256</dim>
					<dim>512</dim>
				</port>
			</output>
		</layer>
		<layer id="40" name="Constant_273" type="Const" version="opset1">
			<data element_type="i64" shape="1" offset="2044960" size="8"/>
			<rt_info>
				<attribute name="fused_names" version="0" value="Constant_273"/>
			</rt_info>
			<output>
				<port id="0" precision="I64">
					<dim>1</dim>
				</port>
			</output>
		</layer>
		<layer id="41" name="413" type="Unsqueeze" version="opset1">
			<rt_info>
				<attribute name="fused_names" version="0" value="413"/>
			</rt_info>
			<input>
				<port id="0" precision="FP32">
					<dim>1</dim>
					<dim>1</dim>
					<dim>512</dim>
				</port>
				<port id="1" precision="I64">
					<dim>1</dim>
				</port>
			</input>
			<output>
				<port id="2" precision="FP32" names="413">
					<dim>1</dim>
					<dim>1</dim>
					<dim>1</dim>
					<dim>512</dim>
				</port>
			</output>
		</layer>
		<layer id="42" name="Constant_275" type="Const" version="opset1">
			<data element_type="i64" shape="1" offset="2044968" size="8"/>
			<rt_info>
				<attribute name="fused_names" version="0" value="Constant_275"/>
			</rt_info>
			<output>
				<port id="0" precision="I64">
					<dim>1</dim>
				</port>
			</output>
		</layer>
		<layer id="43" name="414" type="Unsqueeze" version="opset1">
			<rt_info>
				<attribute name="fused_names" version="0" value="414"/>
			</rt_info>
			<input>
				<port id="0" precision="FP32">
					<dim>1</dim>
					<dim>1</dim>
					<dim>512</dim>
				</port>
				<port id="1" precision="I64">
					<dim>1</dim>
				</port>
			</input>
			<output>
				<port id="2" precision="FP32" names="414">
					<dim>1</dim>
					<dim>1</dim>
					<dim>512</dim>
					<dim>1</dim>
				</port>
			</output>
		</layer>
		<layer id="44" name="415" type="Multiply" version="opset1">
			<data auto_broadcast="numpy"/>
			<rt_info>
				<attribute name="fused_names" version="0" value="415"/>
			</rt_info>
			<input>
				<port id="0" precision="FP32">
					<dim>1</dim>
					<dim>1</dim>
					<dim>1</dim>
					<dim>512</dim>
				</port>
				<port id="1" precision="FP32">
					<dim>1</dim>
					<dim>1</dim>
					<dim>512</dim>
					<dim>1</dim>
				</port>
			</input>
			<output>
				<port id="2" precision="FP32" names="415">
					<dim>1</dim>
					<dim>1</dim>
					<dim>512</dim>
					<dim>512</dim>
				</port>
			</output>
		</layer>
		<layer id="45" name="Constant_21496_compressed" type="Const" version="opset1">
			<data element_type="f16" shape="1, 1, 1, 1" offset="2044976" size="2"/>
			<output>
				<port id="0" precision="FP16">
					<dim>1</dim>
					<dim>1</dim>
					<dim>1</dim>
					<dim>1</dim>
				</port>
			</output>
		</layer>
		<layer id="46" name="Constant_21496" type="Convert" version="opset1">
			<data destination_type="f32"/>
			<rt_info>
				<attribute name="decompression" version="0"/>
			</rt_info>
			<input>
				<port id="0" precision="FP16">
					<dim>1</dim>
					<dim>1</dim>
					<dim>1</dim>
					<dim>1</dim>
				</port>
			</input>
			<output>
				<port id="1" precision="FP32">
					<dim>1</dim>
					<dim>1</dim>
					<dim>1</dim>
					<dim>1</dim>
				</port>
			</output>
		</layer>
		<layer id="47" name="462" type="Equal" version="opset1">
			<data auto_broadcast="numpy"/>
			<rt_info>
				<attribute name="fused_names" version="0" value="462, 463"/>
			</rt_info>
			<input>
				<port id="0" precision="FP32">
					<dim>1</dim>
					<dim>1</dim>
					<dim>512</dim>
					<dim>512</dim>
				</port>
				<port id="1" precision="FP32">
					<dim>1</dim>
					<dim>1</dim>
					<dim>1</dim>
					<dim>1</dim>
				</port>
			</input>
			<output>
				<port id="2" precision="BOOL" names="462,463">
					<dim>1</dim>
					<dim>1</dim>
					<dim>512</dim>
					<dim>512</dim>
				</port>
			</output>
		</layer>
		<layer id="48" name="464_compressed" type="Const" version="opset1">
			<data element_type="f16" shape="" offset="2044978" size="2"/>
			<output>
				<port id="0" precision="FP16"/>
			</output>
		</layer>
		<layer id="49" name="464" type="Convert" version="opset1">
			<data destination_type="f32"/>
			<rt_info>
				<attribute name="decompression" version="0"/>
				<attribute name="fused_names" version="0" value="464"/>
			</rt_info>
			<input>
				<port id="0" precision="FP16"/>
			</input>
			<output>
				<port id="1" precision="FP32" names="464"/>
			</output>
		</layer>
		<layer id="50" name="model.dur_pred.att_enc.attn_layers.0.conv_q.weight_compressed" type="Const" version="opset1">
			<data element_type="f16" shape="256, 256, 1" offset="2044980" size="131072"/>
			<output>
				<port id="0" precision="FP16">
					<dim>256</dim>
					<dim>256</dim>
					<dim>1</dim>
				</port>
			</output>
		</layer>
		<layer id="51" name="model.dur_pred.att_enc.attn_layers.0.conv_q.weight" type="Convert" version="opset1">
			<data destination_type="f32"/>
			<rt_info>
				<attribute name="decompression" version="0"/>
				<attribute name="fused_names" version="0" value="model.dur_pred.att_enc.attn_layers.0.conv_q.weight"/>
			</rt_info>
			<input>
				<port id="0" precision="FP16">
					<dim>256</dim>
					<dim>256</dim>
					<dim>1</dim>
				</port>
			</input>
			<output>
				<port id="1" precision="FP32" names="model.dur_pred.att_enc.attn_layers.0.conv_q.weight">
					<dim>256</dim>
					<dim>256</dim>
					<dim>1</dim>
				</port>
			</output>
		</layer>
		<layer id="52" name="Convolution_279" type="Convolution" version="opset1">
			<data strides="1" dilations="1" pads_begin="0" pads_end="0" auto_pad="explicit"/>
			<rt_info>
				<attribute name="fused_names" version="0" value="Convolution_279"/>
			</rt_info>
			<input>
				<port id="0" precision="FP32">
					<dim>1</dim>
					<dim>256</dim>
					<dim>512</dim>
				</port>
				<port id="1" precision="FP32">
					<dim>256</dim>
					<dim>256</dim>
					<dim>1</dim>
				</port>
			</input>
			<output>
				<port id="2" precision="FP32">
					<dim>1</dim>
					<dim>256</dim>
					<dim>512</dim>
				</port>
			</output>
		</layer>
		<layer id="53" name="Reshape_299_compressed" type="Const" version="opset1">
			<data element_type="f16" shape="1, 256, 1" offset="2176052" size="512"/>
			<output>
				<port id="0" precision="FP16">
					<dim>1</dim>
					<dim>256</dim>
					<dim>1</dim>
				</port>
			</output>
		</layer>
		<layer id="54" name="Reshape_299" type="Convert" version="opset1">
			<data destination_type="f32"/>
			<rt_info>
				<attribute name="decompression" version="0"/>
			</rt_info>
			<input>
				<port id="0" precision="FP16">
					<dim>1</dim>
					<dim>256</dim>
					<dim>1</dim>
				</port>
			</input>
			<output>
				<port id="1" precision="FP32">
					<dim>1</dim>
					<dim>256</dim>
					<dim>1</dim>
				</port>
			</output>
		</layer>
		<layer id="55" name="417" type="Add" version="opset1">
			<data auto_broadcast="numpy"/>
			<rt_info>
				<attribute name="fused_names" version="0" value="417, Concat_298, Reshape_299"/>
			</rt_info>
			<input>
				<port id="0" precision="FP32">
					<dim>1</dim>
					<dim>256</dim>
					<dim>512</dim>
				</port>
				<port id="1" precision="FP32">
					<dim>1</dim>
					<dim>256</dim>
					<dim>1</dim>
				</port>
			</input>
			<output>
				<port id="2" precision="FP32" names="417">
					<dim>1</dim>
					<dim>256</dim>
					<dim>512</dim>
				</port>
			</output>
		</layer>
		<layer id="56" name="model.dur_pred.att_enc.attn_layers.0.conv_k.weight_compressed" type="Const" version="opset1">
			<data element_type="f16" shape="256, 256, 1" offset="2176564" size="131072"/>
			<output>
				<port id="0" precision="FP16">
					<dim>256</dim>
					<dim>256</dim>
					<dim>1</dim>
				</port>
			</output>
		</layer>
		<layer id="57" name="model.dur_pred.att_enc.attn_layers.0.conv_k.weight" type="Convert" version="opset1">
			<data destination_type="f32"/>
			<rt_info>
				<attribute name="decompression" version="0"/>
				<attribute name="fused_names" version="0" value="model.dur_pred.att_enc.attn_layers.0.conv_k.weight"/>
			</rt_info>
			<input>
				<port id="0" precision="FP16">
					<dim>256</dim>
					<dim>256</dim>
					<dim>1</dim>
				</port>
			</input>
			<output>
				<port id="1" precision="FP32" names="model.dur_pred.att_enc.attn_layers.0.conv_k.weight">
					<dim>256</dim>
					<dim>256</dim>
					<dim>1</dim>
				</port>
			</output>
		</layer>
		<layer id="58" name="Convolution_327" type="Convolution" version="opset1">
			<data strides="1" dilations="1" pads_begin="0" pads_end="0" auto_pad="explicit"/>
			<rt_info>
				<attribute name="fused_names" version="0" value="Convolution_327"/>
			</rt_info>
			<input>
				<port id="0" precision="FP32">
					<dim>1</dim>
					<dim>256</dim>
					<dim>512</dim>
				</port>
				<port id="1" precision="FP32">
					<dim>256</dim>
					<dim>256</dim>
					<dim>1</dim>
				</port>
			</input>
			<output>
				<port id="2" precision="FP32">
					<dim>1</dim>
					<dim>256</dim>
					<dim>512</dim>
				</port>
			</output>
		</layer>
		<layer id="59" name="Reshape_347_compressed" type="Const" version="opset1">
			<data element_type="f16" shape="1, 256, 1" offset="2307636" size="512"/>
			<output>
				<port id="0" precision="FP16">
					<dim>1</dim>
					<dim>256</dim>
					<dim>1</dim>
				</port>
			</output>
		</layer>
		<layer id="60" name="Reshape_347" type="Convert" version="opset1">
			<data destination_type="f32"/>
			<rt_info>
				<attribute name="decompression" version="0"/>
			</rt_info>
			<input>
				<port id="0" precision="FP16">
					<dim>1</dim>
					<dim>256</dim>
					<dim>1</dim>
				</port>
			</input>
			<output>
				<port id="1" precision="FP32">
					<dim>1</dim>
					<dim>256</dim>
					<dim>1</dim>
				</port>
			</output>
		</layer>
		<layer id="61" name="418" type="Add" version="opset1">
			<data auto_broadcast="numpy"/>
			<rt_info>
				<attribute name="fused_names" version="0" value="418, Concat_346, Reshape_347"/>
			</rt_info>
			<input>
				<port id="0" precision="FP32">
					<dim>1</dim>
					<dim>256</dim>
					<dim>512</dim>
				</port>
				<port id="1" precision="FP32">
					<dim>1</dim>
					<dim>256</dim>
					<dim>1</dim>
				</port>
			</input>
			<output>
				<port id="2" precision="FP32" names="418">
					<dim>1</dim>
					<dim>256</dim>
					<dim>512</dim>
				</port>
			</output>
		</layer>
		<layer id="62" name="420" type="ShapeOf" version="opset3">
			<data output_type="i64"/>
			<rt_info>
				<attribute name="fused_names" version="0" value="420, 423, 426"/>
			</rt_info>
			<input>
				<port id="0" precision="FP32">
					<dim>1</dim>
					<dim>256</dim>
					<dim>512</dim>
				</port>
			</input>
			<output>
				<port id="1" precision="I64" names="420,423,426">
					<dim>3</dim>
				</port>
			</output>
		</layer>
		<layer id="63" name="Constant_15410" type="Const" version="opset1">
			<data element_type="i64" shape="1" offset="75776" size="8"/>
			<rt_info>
				<attribute name="fused_names" version="0" value="421, 422, 434, Constant_425, Constant_439"/>
			</rt_info>
			<output>
				<port id="0" precision="I64">
					<dim>1</dim>
				</port>
			</output>
		</layer>
		<layer id="64" name="Constant_425" type="Const" version="opset1">
			<data element_type="i64" shape="" offset="75776" size="8"/>
			<rt_info>
				<attribute name="fused_names" version="0" value="Constant_425"/>
			</rt_info>
			<output>
				<port id="0" precision="I64"/>
			</output>
		</layer>
		<layer id="65" name="422" type="Gather" version="opset8">
			<data batch_dims="0"/>
			<rt_info>
				<attribute name="fused_names" version="0" value="421, 422, 434, Constant_425, Constant_439"/>
			</rt_info>
			<input>
				<port id="0" precision="I64">
					<dim>3</dim>
				</port>
				<port id="1" precision="I64">
					<dim>1</dim>
				</port>
				<port id="2" precision="I64"/>
			</input>
			<output>
				<port id="3" precision="I64" names="434">
					<dim>1</dim>
				</port>
			</output>
		</layer>
		<layer id="66" name="1214" type="Const" version="opset1">
			<data element_type="i64" shape="1" offset="2308148" size="8"/>
			<rt_info>
				<attribute name="fused_names" version="0" value="1214"/>
			</rt_info>
			<output>
				<port id="0" precision="I64" names="1214">
					<dim>1</dim>
				</port>
			</output>
		</layer>
		<layer id="67" name="1215" type="Const" version="opset1">
			<data element_type="i64" shape="1" offset="2308156" size="8"/>
			<rt_info>
				<attribute name="fused_names" version="0" value="1215"/>
			</rt_info>
			<output>
				<port id="0" precision="I64" names="1215">
					<dim>1</dim>
				</port>
			</output>
		</layer>
		<layer id="68" name="429" type="ShapeOf" version="opset3">
			<data output_type="i64"/>
			<rt_info>
				<attribute name="fused_names" version="0" value="429"/>
			</rt_info>
			<input>
				<port id="0" precision="FP32">
					<dim>1</dim>
					<dim>256</dim>
					<dim>512</dim>
				</port>
			</input>
			<output>
				<port id="1" precision="I64" names="429">
					<dim>3</dim>
				</port>
			</output>
		</layer>
		<layer id="69" name="Constant_15419" type="Const" version="opset1">
			<data element_type="i64" shape="1" offset="2044960" size="8"/>
			<rt_info>
				<attribute name="fused_names" version="0" value="430, 431, 437, Constant_437, Constant_441"/>
			</rt_info>
			<output>
				<port id="0" precision="I64">
					<dim>1</dim>
				</port>
			</output>
		</layer>
		<layer id="70" name="Constant_437" type="Const" version="opset1">
			<data element_type="i64" shape="" offset="75776" size="8"/>
			<rt_info>
				<attribute name="fused_names" version="0" value="Constant_437"/>
			</rt_info>
			<output>
				<port id="0" precision="I64"/>
			</output>
		</layer>
		<layer id="71" name="431" type="Gather" version="opset8">
			<data batch_dims="0"/>
			<rt_info>
				<attribute name="fused_names" version="0" value="430, 431, 437, Constant_437, Constant_441"/>
			</rt_info>
			<input>
				<port id="0" precision="I64">
					<dim>3</dim>
				</port>
				<port id="1" precision="I64">
					<dim>1</dim>
				</port>
				<port id="2" precision="I64"/>
			</input>
			<output>
				<port id="3" precision="I64" names="437">
					<dim>1</dim>
				</port>
			</output>
		</layer>
		<layer id="72" name="438" type="Concat" version="opset1">
			<data axis="0"/>
			<rt_info>
				<attribute name="fused_names" version="0" value="1214, 1215, 438"/>
			</rt_info>
			<input>
				<port id="0" precision="I64">
					<dim>1</dim>
				</port>
				<port id="1" precision="I64">
					<dim>1</dim>
				</port>
				<port id="2" precision="I64">
					<dim>1</dim>
				</port>
				<port id="3" precision="I64">
					<dim>1</dim>
				</port>
			</input>
			<output>
				<port id="4" precision="I64" names="438">
					<dim>4</dim>
				</port>
			</output>
		</layer>
		<layer id="73" name="439" type="Reshape" version="opset1">
			<data special_zero="true"/>
			<rt_info>
				<attribute name="fused_names" version="0" value="439"/>
			</rt_info>
			<input>
				<port id="0" precision="FP32">
					<dim>1</dim>
					<dim>256</dim>
					<dim>512</dim>
				</port>
				<port id="1" precision="I64">
					<dim>4</dim>
				</port>
			</input>
			<output>
				<port id="2" precision="FP32" names="439">
					<dim>1</dim>
					<dim>4</dim>
					<dim>64</dim>
					<dim>512</dim>
				</port>
			</output>
		</layer>
		<layer id="74" name="Constant_492" type="Const" version="opset1">
			<data element_type="i64" shape="4" offset="2308164" size="32"/>
			<rt_info>
				<attribute name="fused_names" version="0" value="Constant_492"/>
			</rt_info>
			<output>
				<port id="0" precision="I64">
					<dim>4</dim>
				</port>
			</output>
		</layer>
		<layer id="75" name="440" type="Transpose" version="opset1">
			<rt_info>
				<attribute name="fused_names" version="0" value="440"/>
			</rt_info>
			<input>
				<port id="0" precision="FP32">
					<dim>1</dim>
					<dim>4</dim>
					<dim>64</dim>
					<dim>512</dim>
				</port>
				<port id="1" precision="I64">
					<dim>4</dim>
				</port>
			</input>
			<output>
				<port id="2" precision="FP32" names="440">
					<dim>1</dim>
					<dim>4</dim>
					<dim>512</dim>
					<dim>64</dim>
				</port>
			</output>
		</layer>
		<layer id="76" name="Constant_18103" type="Const" version="opset1">
			<data element_type="i64" shape="1" offset="75776" size="8"/>
			<output>
				<port id="0" precision="I64">
					<dim>1</dim>
				</port>
			</output>
		</layer>
		<layer id="77" name="1216" type="Const" version="opset1">
			<data element_type="i64" shape="1" offset="2308148" size="8"/>
			<rt_info>
				<attribute name="fused_names" version="0" value="1216"/>
			</rt_info>
			<output>
				<port id="0" precision="I64" names="1216">
					<dim>1</dim>
				</port>
			</output>
		</layer>
		<layer id="78" name="1217" type="Const" version="opset1">
			<data element_type="i64" shape="1" offset="2308156" size="8"/>
			<rt_info>
				<attribute name="fused_names" version="0" value="1217"/>
			</rt_info>
			<output>
				<port id="0" precision="I64" names="1217">
					<dim>1</dim>
				</port>
			</output>
		</layer>
		<layer id="79" name="Constant_15437" type="Const" version="opset1">
			<data element_type="i64" shape="1" offset="2044960" size="8"/>
			<rt_info>
				<attribute name="fused_names" version="0" value="427, 428, 446, Constant_433, Constant_496"/>
			</rt_info>
			<output>
				<port id="0" precision="I64">
					<dim>1</dim>
				</port>
			</output>
		</layer>
		<layer id="80" name="Constant_433" type="Const" version="opset1">
			<data element_type="i64" shape="" offset="75776" size="8"/>
			<rt_info>
				<attribute name="fused_names" version="0" value="Constant_433"/>
			</rt_info>
			<output>
				<port id="0" precision="I64"/>
			</output>
		</layer>
		<layer id="81" name="428" type="Gather" version="opset8">
			<data batch_dims="0"/>
			<rt_info>
				<attribute name="fused_names" version="0" value="427, 428, 446, Constant_433, Constant_496"/>
			</rt_info>
			<input>
				<port id="0" precision="I64">
					<dim>3</dim>
				</port>
				<port id="1" precision="I64">
					<dim>1</dim>
				</port>
				<port id="2" precision="I64"/>
			</input>
			<output>
				<port id="3" precision="I64" names="446">
					<dim>1</dim>
				</port>
			</output>
		</layer>
		<layer id="82" name="447" type="Concat" version="opset1">
			<data axis="0"/>
			<rt_info>
				<attribute name="fused_names" version="0" value="1216, 1217, 447"/>
			</rt_info>
			<input>
				<port id="0" precision="I64">
					<dim>1</dim>
				</port>
				<port id="1" precision="I64">
					<dim>1</dim>
				</port>
				<port id="2" precision="I64">
					<dim>1</dim>
				</port>
				<port id="3" precision="I64">
					<dim>1</dim>
				</port>
			</input>
			<output>
				<port id="4" precision="I64">
					<dim>4</dim>
				</port>
			</output>
		</layer>
		<layer id="83" name="448" type="Reshape" version="opset1">
			<data special_zero="true"/>
			<rt_info>
				<attribute name="fused_names" version="0" value="448"/>
			</rt_info>
			<input>
				<port id="0" precision="FP32">
					<dim>1</dim>
					<dim>256</dim>
					<dim>512</dim>
				</port>
				<port id="1" precision="I64">
					<dim>4</dim>
				</port>
			</input>
			<output>
				<port id="2" precision="FP32" names="448">
					<dim>1</dim>
					<dim>4</dim>
					<dim>64</dim>
					<dim>512</dim>
				</port>
			</output>
		</layer>
		<layer id="84" name="Constant_21497_compressed" type="Const" version="opset1">
			<data element_type="f16" shape="1, 1, 1, 1" offset="2308196" size="2"/>
			<output>
				<port id="0" precision="FP16">
					<dim>1</dim>
					<dim>1</dim>
					<dim>1</dim>
					<dim>1</dim>
				</port>
			</output>
		</layer>
		<layer id="85" name="Constant_21497" type="Convert" version="opset1">
			<data destination_type="f32"/>
			<rt_info>
				<attribute name="decompression" version="0"/>
			</rt_info>
			<input>
				<port id="0" precision="FP16">
					<dim>1</dim>
					<dim>1</dim>
					<dim>1</dim>
					<dim>1</dim>
				</port>
			</input>
			<output>
				<port id="1" precision="FP32">
					<dim>1</dim>
					<dim>1</dim>
					<dim>1</dim>
					<dim>1</dim>
				</port>
			</output>
		</layer>
		<layer id="86" name="Multiply_21408" type="Multiply" version="opset1">
			<data auto_broadcast="numpy"/>
			<rt_info>
				<attribute name="fused_names" version="0" value="448, 458, 459, 460"/>
			</rt_info>
			<input>
				<port id="0" precision="FP32">
					<dim>1</dim>
					<dim>4</dim>
					<dim>64</dim>
					<dim>512</dim>
				</port>
				<port id="1" precision="FP32">
					<dim>1</dim>
					<dim>1</dim>
					<dim>1</dim>
					<dim>1</dim>
				</port>
			</input>
			<output>
				<port id="2" precision="FP32">
					<dim>1</dim>
					<dim>4</dim>
					<dim>64</dim>
					<dim>512</dim>
				</port>
			</output>
		</layer>
		<layer id="87" name="460" type="MatMul" version="opset1">
			<data transpose_a="false" transpose_b="false"/>
			<rt_info>
				<attribute name="fused_names" version="0" value="448, 458, 459, 460"/>
			</rt_info>
			<input>
				<port id="0" precision="FP32">
					<dim>1</dim>
					<dim>4</dim>
					<dim>512</dim>
					<dim>64</dim>
				</port>
				<port id="1" precision="FP32">
					<dim>1</dim>
					<dim>4</dim>
					<dim>64</dim>
					<dim>512</dim>
				</port>
			</input>
			<output>
				<port id="2" precision="FP32" names="460">
					<dim>1</dim>
					<dim>4</dim>
					<dim>512</dim>
					<dim>512</dim>
				</port>
			</output>
		</layer>
		<layer id="88" name="465" type="Select" version="opset1">
			<data auto_broadcast="numpy"/>
			<rt_info>
				<attribute name="fused_names" version="0" value="465"/>
			</rt_info>
			<input>
				<port id="0" precision="BOOL">
					<dim>1</dim>
					<dim>1</dim>
					<dim>512</dim>
					<dim>512</dim>
				</port>
				<port id="1" precision="FP32"/>
				<port id="2" precision="FP32">
					<dim>1</dim>
					<dim>4</dim>
					<dim>512</dim>
					<dim>512</dim>
				</port>
			</input>
			<output>
				<port id="3" precision="FP32" names="465">
					<dim>1</dim>
					<dim>4</dim>
					<dim>512</dim>
					<dim>512</dim>
				</port>
			</output>
		</layer>
		<layer id="89" name="466" type="SoftMax" version="opset8">
			<data axis="3"/>
			<rt_info>
				<attribute name="fused_names" version="0" value="466"/>
			</rt_info>
			<input>
				<port id="0" precision="FP32">
					<dim>1</dim>
					<dim>4</dim>
					<dim>512</dim>
					<dim>512</dim>
				</port>
			</input>
			<output>
				<port id="1" precision="FP32" names="466">
					<dim>1</dim>
					<dim>4</dim>
					<dim>512</dim>
					<dim>512</dim>
				</port>
			</output>
		</layer>
		<layer id="90" name="model.dur_pred.att_enc.attn_layers.0.conv_v.weight_compressed" type="Const" version="opset1">
			<data element_type="f16" shape="256, 256, 1" offset="2308198" size="131072"/>
			<output>
				<port id="0" precision="FP16">
					<dim>256</dim>
					<dim>256</dim>
					<dim>1</dim>
				</port>
			</output>
		</layer>
		<layer id="91" name="model.dur_pred.att_enc.attn_layers.0.conv_v.weight" type="Convert" version="opset1">
			<data destination_type="f32"/>
			<rt_info>
				<attribute name="decompression" version="0"/>
				<attribute name="fused_names" version="0" value="model.dur_pred.att_enc.attn_layers.0.conv_v.weight"/>
			</rt_info>
			<input>
				<port id="0" precision="FP16">
					<dim>256</dim>
					<dim>256</dim>
					<dim>1</dim>
				</port>
			</input>
			<output>
				<port id="1" precision="FP32" names="model.dur_pred.att_enc.attn_layers.0.conv_v.weight">
					<dim>256</dim>
					<dim>256</dim>
					<dim>1</dim>
				</port>
			</output>
		</layer>
		<layer id="92" name="Convolution_375" type="Convolution" version="opset1">
			<data strides="1" dilations="1" pads_begin="0" pads_end="0" auto_pad="explicit"/>
			<rt_info>
				<attribute name="fused_names" version="0" value="Convolution_375"/>
			</rt_info>
			<input>
				<port id="0" precision="FP32">
					<dim>1</dim>
					<dim>256</dim>
					<dim>512</dim>
				</port>
				<port id="1" precision="FP32">
					<dim>256</dim>
					<dim>256</dim>
					<dim>1</dim>
				</port>
			</input>
			<output>
				<port id="2" precision="FP32">
					<dim>1</dim>
					<dim>256</dim>
					<dim>512</dim>
				</port>
			</output>
		</layer>
		<layer id="93" name="Reshape_395_compressed" type="Const" version="opset1">
			<data element_type="f16" shape="1, 256, 1" offset="2439270" size="512"/>
			<output>
				<port id="0" precision="FP16">
					<dim>1</dim>
					<dim>256</dim>
					<dim>1</dim>
				</port>
			</output>
		</layer>
		<layer id="94" name="Reshape_395" type="Convert" version="opset1">
			<data destination_type="f32"/>
			<rt_info>
				<attribute name="decompression" version="0"/>
			</rt_info>
			<input>
				<port id="0" precision="FP16">
					<dim>1</dim>
					<dim>256</dim>
					<dim>1</dim>
				</port>
			</input>
			<output>
				<port id="1" precision="FP32">
					<dim>1</dim>
					<dim>256</dim>
					<dim>1</dim>
				</port>
			</output>
		</layer>
		<layer id="95" name="419" type="Add" version="opset1">
			<data auto_broadcast="numpy"/>
			<rt_info>
				<attribute name="fused_names" version="0" value="419, Concat_394, Reshape_395"/>
			</rt_info>
			<input>
				<port id="0" precision="FP32">
					<dim>1</dim>
					<dim>256</dim>
					<dim>512</dim>
				</port>
				<port id="1" precision="FP32">
					<dim>1</dim>
					<dim>256</dim>
					<dim>1</dim>
				</port>
			</input>
			<output>
				<port id="2" precision="FP32" names="419">
					<dim>1</dim>
					<dim>256</dim>
					<dim>512</dim>
				</port>
			</output>
		</layer>
		<layer id="96" name="Constant_15446" type="Const" version="opset1">
			<data element_type="i64" shape="1" offset="75776" size="8"/>
			<rt_info>
				<attribute name="fused_names" version="0" value="421, 422, 451, Constant_425, Constant_547"/>
			</rt_info>
			<output>
				<port id="0" precision="I64">
					<dim>1</dim>
				</port>
			</output>
		</layer>
		<layer id="97" name="4220" type="Gather" version="opset8">
			<data batch_dims="0"/>
			<rt_info>
				<attribute name="fused_names" version="0" value="421, 422, 451, Constant_425, Constant_547"/>
			</rt_info>
			<input>
				<port id="0" precision="I64">
					<dim>3</dim>
				</port>
				<port id="1" precision="I64">
					<dim>1</dim>
				</port>
				<port id="2" precision="I64"/>
			</input>
			<output>
				<port id="3" precision="I64" names="451">
					<dim>1</dim>
				</port>
			</output>
		</layer>
		<layer id="98" name="1218" type="Const" version="opset1">
			<data element_type="i64" shape="1" offset="2308148" size="8"/>
			<rt_info>
				<attribute name="fused_names" version="0" value="1218"/>
			</rt_info>
			<output>
				<port id="0" precision="I64" names="1218">
					<dim>1</dim>
				</port>
			</output>
		</layer>
		<layer id="99" name="1219" type="Const" version="opset1">
			<data element_type="i64" shape="1" offset="2308156" size="8"/>
			<rt_info>
				<attribute name="fused_names" version="0" value="1219"/>
			</rt_info>
			<output>
				<port id="0" precision="I64" names="1219">
					<dim>1</dim>
				</port>
			</output>
		</layer>
		<layer id="100" name="Constant_15455" type="Const" version="opset1">
			<data element_type="i64" shape="1" offset="2044960" size="8"/>
			<rt_info>
				<attribute name="fused_names" version="0" value="427, 428, 454, Constant_433, Constant_549"/>
			</rt_info>
			<output>
				<port id="0" precision="I64">
					<dim>1</dim>
				</port>
			</output>
		</layer>
		<layer id="101" name="4280" type="Gather" version="opset8">
			<data batch_dims="0"/>
			<rt_info>
				<attribute name="fused_names" version="0" value="427, 428, 454, Constant_433, Constant_549"/>
			</rt_info>
			<input>
				<port id="0" precision="I64">
					<dim>3</dim>
				</port>
				<port id="1" precision="I64">
					<dim>1</dim>
				</port>
				<port id="2" precision="I64"/>
			</input>
			<output>
				<port id="3" precision="I64" names="454">
					<dim>1</dim>
				</port>
			</output>
		</layer>
		<layer id="102" name="455" type="Concat" version="opset1">
			<data axis="0"/>
			<rt_info>
				<attribute name="fused_names" version="0" value="1218, 1219, 455"/>
			</rt_info>
			<input>
				<port id="0" precision="I64">
					<dim>1</dim>
				</port>
				<port id="1" precision="I64">
					<dim>1</dim>
				</port>
				<port id="2" precision="I64">
					<dim>1</dim>
				</port>
				<port id="3" precision="I64">
					<dim>1</dim>
				</port>
			</input>
			<output>
				<port id="4" precision="I64" names="455">
					<dim>4</dim>
				</port>
			</output>
		</layer>
		<layer id="103" name="456" type="Reshape" version="opset1">
			<data special_zero="true"/>
			<rt_info>
				<attribute name="fused_names" version="0" value="456"/>
			</rt_info>
			<input>
				<port id="0" precision="FP32">
					<dim>1</dim>
					<dim>256</dim>
					<dim>512</dim>
				</port>
				<port id="1" precision="I64">
					<dim>4</dim>
				</port>
			</input>
			<output>
				<port id="2" precision="FP32" names="456">
					<dim>1</dim>
					<dim>4</dim>
					<dim>64</dim>
					<dim>512</dim>
				</port>
			</output>
		</layer>
		<layer id="104" name="Constant_600" type="Const" version="opset1">
			<data element_type="i64" shape="4" offset="2308164" size="32"/>
			<rt_info>
				<attribute name="fused_names" version="0" value="Constant_600"/>
			</rt_info>
			<output>
				<port id="0" precision="I64">
					<dim>4</dim>
				</port>
			</output>
		</layer>
		<layer id="105" name="457" type="Transpose" version="opset1">
			<rt_info>
				<attribute name="fused_names" version="0" value="457"/>
			</rt_info>
			<input>
				<port id="0" precision="FP32">
					<dim>1</dim>
					<dim>4</dim>
					<dim>64</dim>
					<dim>512</dim>
				</port>
				<port id="1" precision="I64">
					<dim>4</dim>
				</port>
			</input>
			<output>
				<port id="2" precision="FP32" names="457">
					<dim>1</dim>
					<dim>4</dim>
					<dim>512</dim>
					<dim>64</dim>
				</port>
			</output>
		</layer>
		<layer id="106" name="467" type="MatMul" version="opset1">
			<data transpose_a="false" transpose_b="false"/>
			<rt_info>
				<attribute name="fused_names" version="0" value="467"/>
			</rt_info>
			<input>
				<port id="0" precision="FP32">
					<dim>1</dim>
					<dim>4</dim>
					<dim>512</dim>
					<dim>512</dim>
				</port>
				<port id="1" precision="FP32">
					<dim>1</dim>
					<dim>4</dim>
					<dim>512</dim>
					<dim>64</dim>
				</port>
			</input>
			<output>
				<port id="2" precision="FP32" names="467">
					<dim>1</dim>
					<dim>4</dim>
					<dim>512</dim>
					<dim>64</dim>
				</port>
			</output>
		</layer>
		<layer id="107" name="Constant_612" type="Const" version="opset1">
			<data element_type="i64" shape="4" offset="2308164" size="32"/>
			<rt_info>
				<attribute name="fused_names" version="0" value="Constant_612"/>
			</rt_info>
			<output>
				<port id="0" precision="I64">
					<dim>4</dim>
				</port>
			</output>
		</layer>
		<layer id="108" name="468" type="Transpose" version="opset1">
			<rt_info>
				<attribute name="fused_names" version="0" value="468"/>
			</rt_info>
			<input>
				<port id="0" precision="FP32">
					<dim>1</dim>
					<dim>4</dim>
					<dim>512</dim>
					<dim>64</dim>
				</port>
				<port id="1" precision="I64">
					<dim>4</dim>
				</port>
			</input>
			<output>
				<port id="2" precision="FP32" names="468">
					<dim>1</dim>
					<dim>4</dim>
					<dim>64</dim>
					<dim>512</dim>
				</port>
			</output>
		</layer>
		<layer id="109" name="Constant_15890" type="Const" version="opset1">
			<data element_type="i64" shape="2" offset="2439782" size="16"/>
			<rt_info>
				<attribute name="fused_names" version="0" value="472"/>
			</rt_info>
			<output>
				<port id="0" precision="I64">
					<dim>2</dim>
				</port>
			</output>
		</layer>
		<layer id="110" name="Constant_15891" type="Const" version="opset1">
			<data element_type="i64" shape="" offset="75776" size="8"/>
			<output>
				<port id="0" precision="I64"/>
			</output>
		</layer>
		<layer id="111" name="Gather_15892" type="Gather" version="opset8">
			<data batch_dims="0"/>
			<rt_info>
				<attribute name="fused_names" version="0" value="472"/>
			</rt_info>
			<input>
				<port id="0" precision="I64">
					<dim>3</dim>
				</port>
				<port id="1" precision="I64">
					<dim>2</dim>
				</port>
				<port id="2" precision="I64"/>
			</input>
			<output>
				<port id="3" precision="I64">
					<dim>2</dim>
				</port>
			</output>
		</layer>
		<layer id="112" name="Constant_15482" type="Const" version="opset1">
			<data element_type="i64" shape="1" offset="2044960" size="8"/>
			<rt_info>
				<attribute name="fused_names" version="0" value="430, 431, 471, Constant_437, Constant_618"/>
			</rt_info>
			<output>
				<port id="0" precision="I64">
					<dim>1</dim>
				</port>
			</output>
		</layer>
		<layer id="113" name="4310" type="Gather" version="opset8">
			<data batch_dims="0"/>
			<rt_info>
				<attribute name="fused_names" version="0" value="430, 431, 471, Constant_437, Constant_618"/>
			</rt_info>
			<input>
				<port id="0" precision="I64">
					<dim>3</dim>
				</port>
				<port id="1" precision="I64">
					<dim>1</dim>
				</port>
				<port id="2" precision="I64"/>
			</input>
			<output>
				<port id="3" precision="I64" names="471">
					<dim>1</dim>
				</port>
			</output>
		</layer>
		<layer id="114" name="472" type="Concat" version="opset1">
			<data axis="0"/>
			<rt_info>
				<attribute name="fused_names" version="0" value="472"/>
			</rt_info>
			<input>
				<port id="0" precision="I64">
					<dim>2</dim>
				</port>
				<port id="1" precision="I64">
					<dim>1</dim>
				</port>
			</input>
			<output>
				<port id="2" precision="I64" names="472">
					<dim>3</dim>
				</port>
			</output>
		</layer>
		<layer id="115" name="473" type="Reshape" version="opset1">
			<data special_zero="true"/>
			<rt_info>
				<attribute name="fused_names" version="0" value="473"/>
			</rt_info>
			<input>
				<port id="0" precision="FP32">
					<dim>1</dim>
					<dim>4</dim>
					<dim>64</dim>
					<dim>512</dim>
				</port>
				<port id="1" precision="I64">
					<dim>3</dim>
				</port>
			</input>
			<output>
				<port id="2" precision="FP32" names="473">
					<dim>1</dim>
					<dim>256</dim>
					<dim>512</dim>
				</port>
			</output>
		</layer>
		<layer id="116" name="model.dur_pred.att_enc.attn_layers.0.conv_o.weight_compressed" type="Const" version="opset1">
			<data element_type="f16" shape="256, 256, 1" offset="2439798" size="131072"/>
			<output>
				<port id="0" precision="FP16">
					<dim>256</dim>
					<dim>256</dim>
					<dim>1</dim>
				</port>
			</output>
		</layer>
		<layer id="117" name="model.dur_pred.att_enc.attn_layers.0.conv_o.weight" type="Convert" version="opset1">
			<data destination_type="f32"/>
			<rt_info>
				<attribute name="decompression" version="0"/>
				<attribute name="fused_names" version="0" value="model.dur_pred.att_enc.attn_layers.0.conv_o.weight"/>
			</rt_info>
			<input>
				<port id="0" precision="FP16">
					<dim>256</dim>
					<dim>256</dim>
					<dim>1</dim>
				</port>
			</input>
			<output>
				<port id="1" precision="FP32" names="model.dur_pred.att_enc.attn_layers.0.conv_o.weight">
					<dim>256</dim>
					<dim>256</dim>
					<dim>1</dim>
				</port>
			</output>
		</layer>
		<layer id="118" name="Convolution_681" type="Convolution" version="opset1">
			<data strides="1" dilations="1" pads_begin="0" pads_end="0" auto_pad="explicit"/>
			<rt_info>
				<attribute name="fused_names" version="0" value="Convolution_681"/>
			</rt_info>
			<input>
				<port id="0" precision="FP32">
					<dim>1</dim>
					<dim>256</dim>
					<dim>512</dim>
				</port>
				<port id="1" precision="FP32">
					<dim>256</dim>
					<dim>256</dim>
					<dim>1</dim>
				</port>
			</input>
			<output>
				<port id="2" precision="FP32">
					<dim>1</dim>
					<dim>256</dim>
					<dim>512</dim>
				</port>
			</output>
		</layer>
		<layer id="119" name="Reshape_701_compressed" type="Const" version="opset1">
			<data element_type="f16" shape="1, 256, 1" offset="2570870" size="512"/>
			<output>
				<port id="0" precision="FP16">
					<dim>1</dim>
					<dim>256</dim>
					<dim>1</dim>
				</port>
			</output>
		</layer>
		<layer id="120" name="Reshape_701" type="Convert" version="opset1">
			<data destination_type="f32"/>
			<rt_info>
				<attribute name="decompression" version="0"/>
			</rt_info>
			<input>
				<port id="0" precision="FP16">
					<dim>1</dim>
					<dim>256</dim>
					<dim>1</dim>
				</port>
			</input>
			<output>
				<port id="1" precision="FP32">
					<dim>1</dim>
					<dim>256</dim>
					<dim>1</dim>
				</port>
			</output>
		</layer>
		<layer id="121" name="474" type="Add" version="opset1">
			<data auto_broadcast="numpy"/>
			<rt_info>
				<attribute name="fused_names" version="0" value="474, Concat_700, Reshape_701"/>
			</rt_info>
			<input>
				<port id="0" precision="FP32">
					<dim>1</dim>
					<dim>256</dim>
					<dim>512</dim>
				</port>
				<port id="1" precision="FP32">
					<dim>1</dim>
					<dim>256</dim>
					<dim>1</dim>
				</port>
			</input>
			<output>
				<port id="2" precision="FP32" names="474">
					<dim>1</dim>
					<dim>256</dim>
					<dim>512</dim>
				</port>
			</output>
		</layer>
		<layer id="122" name="475" type="Add" version="opset1">
			<data auto_broadcast="numpy"/>
			<rt_info>
				<attribute name="fused_names" version="0" value="475"/>
			</rt_info>
			<input>
				<port id="0" precision="FP32">
					<dim>1</dim>
					<dim>256</dim>
					<dim>512</dim>
				</port>
				<port id="1" precision="FP32">
					<dim>1</dim>
					<dim>256</dim>
					<dim>512</dim>
				</port>
			</input>
			<output>
				<port id="2" precision="FP32" names="475">
					<dim>1</dim>
					<dim>256</dim>
					<dim>512</dim>
				</port>
			</output>
		</layer>
		<layer id="123" name="Constant_730" type="Const" version="opset1">
			<data element_type="i64" shape="1" offset="2571382" size="8"/>
			<rt_info>
				<attribute name="fused_names" version="0" value="Constant_730"/>
			</rt_info>
			<output>
				<port id="0" precision="I64">
					<dim>1</dim>
				</port>
			</output>
		</layer>
		<layer id="124" name="476" type="ReduceMean" version="opset1">
			<data keep_dims="true"/>
			<rt_info>
				<attribute name="fused_names" version="0" value="476"/>
			</rt_info>
			<input>
				<port id="0" precision="FP32">
					<dim>1</dim>
					<dim>256</dim>
					<dim>512</dim>
				</port>
				<port id="1" precision="I64">
					<dim>1</dim>
				</port>
			</input>
			<output>
				<port id="2" precision="FP32" names="476">
					<dim>1</dim>
					<dim>1</dim>
					<dim>512</dim>
				</port>
			</output>
		</layer>
		<layer id="125" name="482" type="Subtract" version="opset1">
			<data auto_broadcast="numpy"/>
			<rt_info>
				<attribute name="fused_names" version="0" value="482"/>
			</rt_info>
			<input>
				<port id="0" precision="FP32">
					<dim>1</dim>
					<dim>256</dim>
					<dim>512</dim>
				</port>
				<port id="1" precision="FP32">
					<dim>1</dim>
					<dim>1</dim>
					<dim>512</dim>
				</port>
			</input>
			<output>
				<port id="2" precision="FP32" names="482">
					<dim>1</dim>
					<dim>256</dim>
					<dim>512</dim>
				</port>
			</output>
		</layer>
		<layer id="126" name="Constant_21500_compressed" type="Const" version="opset1">
			<data element_type="f16" shape="1, 1, 1" offset="2571390" size="2"/>
			<output>
				<port id="0" precision="FP16">
					<dim>1</dim>
					<dim>1</dim>
					<dim>1</dim>
				</port>
			</output>
		</layer>
		<layer id="127" name="Constant_21500" type="Convert" version="opset1">
			<data destination_type="f32"/>
			<rt_info>
				<attribute name="decompression" version="0"/>
			</rt_info>
			<input>
				<port id="0" precision="FP16">
					<dim>1</dim>
					<dim>1</dim>
					<dim>1</dim>
				</port>
			</input>
			<output>
				<port id="1" precision="FP32">
					<dim>1</dim>
					<dim>1</dim>
					<dim>1</dim>
				</port>
			</output>
		</layer>
		<layer id="128" name="477" type="Subtract" version="opset1">
			<data auto_broadcast="numpy"/>
			<rt_info>
				<attribute name="fused_names" version="0" value="477"/>
			</rt_info>
			<input>
				<port id="0" precision="FP32">
					<dim>1</dim>
					<dim>256</dim>
					<dim>512</dim>
				</port>
				<port id="1" precision="FP32">
					<dim>1</dim>
					<dim>1</dim>
					<dim>512</dim>
				</port>
			</input>
			<output>
				<port id="2" precision="FP32" names="477">
					<dim>1</dim>
					<dim>256</dim>
					<dim>512</dim>
				</port>
			</output>
		</layer>
		<layer id="129" name="Constant_21498_compressed" type="Const" version="opset1">
			<data element_type="f16" shape="1, 1, 1" offset="2571392" size="2"/>
			<output>
				<port id="0" precision="FP16">
					<dim>1</dim>
					<dim>1</dim>
					<dim>1</dim>
				</port>
			</output>
		</layer>
		<layer id="130" name="Constant_21498" type="Convert" version="opset1">
			<data destination_type="f32"/>
			<rt_info>
				<attribute name="decompression" version="0"/>
			</rt_info>
			<input>
				<port id="0" precision="FP16">
					<dim>1</dim>
					<dim>1</dim>
					<dim>1</dim>
				</port>
			</input>
			<output>
				<port id="1" precision="FP32">
					<dim>1</dim>
					<dim>1</dim>
					<dim>1</dim>
				</port>
			</output>
		</layer>
		<layer id="131" name="480" type="Power" version="opset1">
			<data auto_broadcast="numpy"/>
			<rt_info>
				<attribute name="fused_names" version="0" value="480"/>
			</rt_info>
			<input>
				<port id="0" precision="FP32">
					<dim>1</dim>
					<dim>256</dim>
					<dim>512</dim>
				</port>
				<port id="1" precision="FP32">
					<dim>1</dim>
					<dim>1</dim>
					<dim>1</dim>
				</port>
			</input>
			<output>
				<port id="2" precision="FP32" names="480">
					<dim>1</dim>
					<dim>256</dim>
					<dim>512</dim>
				</port>
			</output>
		</layer>
		<layer id="132" name="Constant_734" type="Const" version="opset1">
			<data element_type="i64" shape="1" offset="2571382" size="8"/>
			<rt_info>
				<attribute name="fused_names" version="0" value="Constant_734"/>
			</rt_info>
			<output>
				<port id="0" precision="I64">
					<dim>1</dim>
				</port>
			</output>
		</layer>
		<layer id="133" name="481" type="ReduceMean" version="opset1">
			<data keep_dims="true"/>
			<rt_info>
				<attribute name="fused_names" version="0" value="481"/>
			</rt_info>
			<input>
				<port id="0" precision="FP32">
					<dim>1</dim>
					<dim>256</dim>
					<dim>512</dim>
				</port>
				<port id="1" precision="I64">
					<dim>1</dim>
				</port>
			</input>
			<output>
				<port id="2" precision="FP32" names="481">
					<dim>1</dim>
					<dim>1</dim>
					<dim>512</dim>
				</port>
			</output>
		</layer>
		<layer id="134" name="Constant_21499_compressed" type="Const" version="opset1">
			<data element_type="f16" shape="1, 1, 1" offset="2571394" size="2"/>
			<output>
				<port id="0" precision="FP16">
					<dim>1</dim>
					<dim>1</dim>
					<dim>1</dim>
				</port>
			</output>
		</layer>
		<layer id="135" name="Constant_21499" type="Convert" version="opset1">
			<data destination_type="f32"/>
			<rt_info>
				<attribute name="decompression" version="0"/>
			</rt_info>
			<input>
				<port id="0" precision="FP16">
					<dim>1</dim>
					<dim>1</dim>
					<dim>1</dim>
				</port>
			</input>
			<output>
				<port id="1" precision="FP32">
					<dim>1</dim>
					<dim>1</dim>
					<dim>1</dim>
				</port>
			</output>
		</layer>
		<layer id="136" name="484" type="Add" version="opset1">
			<data auto_broadcast="numpy"/>
			<rt_info>
				<attribute name="fused_names" version="0" value="484"/>
			</rt_info>
			<input>
				<port id="0" precision="FP32">
					<dim>1</dim>
					<dim>1</dim>
					<dim>512</dim>
				</port>
				<port id="1" precision="FP32">
					<dim>1</dim>
					<dim>1</dim>
					<dim>1</dim>
				</port>
			</input>
			<output>
				<port id="2" precision="FP32" names="484">
					<dim>1</dim>
					<dim>1</dim>
					<dim>512</dim>
				</port>
			</output>
		</layer>
		<layer id="137" name="485" type="Sqrt" version="opset1">
			<rt_info>
				<attribute name="fused_names" version="0" value="485"/>
			</rt_info>
			<input>
				<port id="0" precision="FP32">
					<dim>1</dim>
					<dim>1</dim>
					<dim>512</dim>
				</port>
			</input>
			<output>
				<port id="1" precision="FP32" names="485">
					<dim>1</dim>
					<dim>1</dim>
					<dim>512</dim>
				</port>
			</output>
		</layer>
		<layer id="138" name="487" type="Divide" version="opset1">
			<data auto_broadcast="numpy" m_pythondiv="true"/>
			<rt_info>
				<attribute name="fused_names" version="0" value="487"/>
			</rt_info>
			<input>
				<port id="0" precision="FP32">
					<dim>1</dim>
					<dim>1</dim>
					<dim>1</dim>
				</port>
				<port id="1" precision="FP32">
					<dim>1</dim>
					<dim>1</dim>
					<dim>512</dim>
				</port>
			</input>
			<output>
				<port id="2" precision="FP32" names="487">
					<dim>1</dim>
					<dim>1</dim>
					<dim>512</dim>
				</port>
			</output>
		</layer>
		<layer id="139" name="488" type="Multiply" version="opset1">
			<data auto_broadcast="numpy"/>
			<rt_info>
				<attribute name="fused_names" version="0" value="488"/>
			</rt_info>
			<input>
				<port id="0" precision="FP32">
					<dim>1</dim>
					<dim>256</dim>
					<dim>512</dim>
				</port>
				<port id="1" precision="FP32">
					<dim>1</dim>
					<dim>1</dim>
					<dim>512</dim>
				</port>
			</input>
			<output>
				<port id="2" precision="FP32" names="488">
					<dim>1</dim>
					<dim>256</dim>
					<dim>512</dim>
				</port>
			</output>
		</layer>
		<layer id="140" name="1221_compressed" type="Const" version="opset1">
			<data element_type="f16" shape="1, 256, 1" offset="2571396" size="512"/>
			<output>
				<port id="0" precision="FP16">
					<dim>1</dim>
					<dim>256</dim>
					<dim>1</dim>
				</port>
			</output>
		</layer>
		<layer id="141" name="1221" type="Convert" version="opset1">
			<data destination_type="f32"/>
			<rt_info>
				<attribute name="decompression" version="0"/>
				<attribute name="fused_names" version="0" value="1221"/>
			</rt_info>
			<input>
				<port id="0" precision="FP16">
					<dim>1</dim>
					<dim>256</dim>
					<dim>1</dim>
				</port>
			</input>
			<output>
				<port id="1" precision="FP32" names="1221">
					<dim>1</dim>
					<dim>256</dim>
					<dim>1</dim>
				</port>
			</output>
		</layer>
		<layer id="142" name="491" type="Multiply" version="opset1">
			<data auto_broadcast="numpy"/>
			<rt_info>
				<attribute name="fused_names" version="0" value="491"/>
			</rt_info>
			<input>
				<port id="0" precision="FP32">
					<dim>1</dim>
					<dim>256</dim>
					<dim>512</dim>
				</port>
				<port id="1" precision="FP32">
					<dim>1</dim>
					<dim>256</dim>
					<dim>1</dim>
				</port>
			</input>
			<output>
				<port id="2" precision="FP32" names="491">
					<dim>1</dim>
					<dim>256</dim>
					<dim>512</dim>
				</port>
			</output>
		</layer>
		<layer id="143" name="1222_compressed" type="Const" version="opset1">
			<data element_type="f16" shape="1, 256, 1" offset="2571908" size="512"/>
			<output>
				<port id="0" precision="FP16">
					<dim>1</dim>
					<dim>256</dim>
					<dim>1</dim>
				</port>
			</output>
		</layer>
		<layer id="144" name="1222" type="Convert" version="opset1">
			<data destination_type="f32"/>
			<rt_info>
				<attribute name="decompression" version="0"/>
				<attribute name="fused_names" version="0" value="1222"/>
			</rt_info>
			<input>
				<port id="0" precision="FP16">
					<dim>1</dim>
					<dim>256</dim>
					<dim>1</dim>
				</port>
			</input>
			<output>
				<port id="1" precision="FP32" names="1222">
					<dim>1</dim>
					<dim>256</dim>
					<dim>1</dim>
				</port>
			</output>
		</layer>
		<layer id="145" name="494" type="Add" version="opset1">
			<data auto_broadcast="numpy"/>
			<rt_info>
				<attribute name="fused_names" version="0" value="494"/>
			</rt_info>
			<input>
				<port id="0" precision="FP32">
					<dim>1</dim>
					<dim>256</dim>
					<dim>512</dim>
				</port>
				<port id="1" precision="FP32">
					<dim>1</dim>
					<dim>256</dim>
					<dim>1</dim>
				</port>
			</input>
			<output>
				<port id="2" precision="FP32" names="494">
					<dim>1</dim>
					<dim>256</dim>
					<dim>512</dim>
				</port>
			</output>
		</layer>
		<layer id="146" name="495" type="Multiply" version="opset1">
			<data auto_broadcast="numpy"/>
			<rt_info>
				<attribute name="fused_names" version="0" value="495"/>
			</rt_info>
			<input>
				<port id="0" precision="FP32">
					<dim>1</dim>
					<dim>256</dim>
					<dim>512</dim>
				</port>
				<port id="1" precision="FP32">
					<dim>1</dim>
					<dim>1</dim>
					<dim>512</dim>
				</port>
			</input>
			<output>
				<port id="2" precision="FP32" names="495">
					<dim>1</dim>
					<dim>256</dim>
					<dim>512</dim>
				</port>
			</output>
		</layer>
		<layer id="147" name="model.dur_pred.att_enc.ffn_layers.0.conv_1.weight_compressed" type="Const" version="opset1">
			<data element_type="f16" shape="128, 256, 1" offset="2572420" size="65536"/>
			<output>
				<port id="0" precision="FP16">
					<dim>128</dim>
					<dim>256</dim>
					<dim>1</dim>
				</port>
			</output>
		</layer>
		<layer id="148" name="model.dur_pred.att_enc.ffn_layers.0.conv_1.weight" type="Convert" version="opset1">
			<data destination_type="f32"/>
			<rt_info>
				<attribute name="decompression" version="0"/>
				<attribute name="fused_names" version="0" value="model.dur_pred.att_enc.ffn_layers.0.conv_1.weight"/>
			</rt_info>
			<input>
				<port id="0" precision="FP16">
					<dim>128</dim>
					<dim>256</dim>
					<dim>1</dim>
				</port>
			</input>
			<output>
				<port id="1" precision="FP32" names="model.dur_pred.att_enc.ffn_layers.0.conv_1.weight">
					<dim>128</dim>
					<dim>256</dim>
					<dim>1</dim>
				</port>
			</output>
		</layer>
		<layer id="149" name="Convolution_746" type="Convolution" version="opset1">
			<data strides="1" dilations="1" pads_begin="0" pads_end="0" auto_pad="explicit"/>
			<rt_info>
				<attribute name="fused_names" version="0" value="Convolution_746"/>
			</rt_info>
			<input>
				<port id="0" precision="FP32">
					<dim>1</dim>
					<dim>256</dim>
					<dim>512</dim>
				</port>
				<port id="1" precision="FP32">
					<dim>128</dim>
					<dim>256</dim>
					<dim>1</dim>
				</port>
			</input>
			<output>
				<port id="2" precision="FP32">
					<dim>1</dim>
					<dim>128</dim>
					<dim>512</dim>
				</port>
			</output>
		</layer>
		<layer id="150" name="Reshape_766_compressed" type="Const" version="opset1">
			<data element_type="f16" shape="1, 128, 1" offset="2637956" size="256"/>
			<output>
				<port id="0" precision="FP16">
					<dim>1</dim>
					<dim>128</dim>
					<dim>1</dim>
				</port>
			</output>
		</layer>
		<layer id="151" name="Reshape_766" type="Convert" version="opset1">
			<data destination_type="f32"/>
			<rt_info>
				<attribute name="decompression" version="0"/>
			</rt_info>
			<input>
				<port id="0" precision="FP16">
					<dim>1</dim>
					<dim>128</dim>
					<dim>1</dim>
				</port>
			</input>
			<output>
				<port id="1" precision="FP32">
					<dim>1</dim>
					<dim>128</dim>
					<dim>1</dim>
				</port>
			</output>
		</layer>
		<layer id="152" name="496" type="Add" version="opset1">
			<data auto_broadcast="numpy"/>
			<rt_info>
				<attribute name="fused_names" version="0" value="496, Concat_765, Reshape_766"/>
			</rt_info>
			<input>
				<port id="0" precision="FP32">
					<dim>1</dim>
					<dim>128</dim>
					<dim>512</dim>
				</port>
				<port id="1" precision="FP32">
					<dim>1</dim>
					<dim>128</dim>
					<dim>1</dim>
				</port>
			</input>
			<output>
				<port id="2" precision="FP32" names="496">
					<dim>1</dim>
					<dim>128</dim>
					<dim>512</dim>
				</port>
			</output>
		</layer>
		<layer id="153" name="497" type="ReLU" version="opset1">
			<rt_info>
				<attribute name="fused_names" version="0" value="497"/>
			</rt_info>
			<input>
				<port id="0" precision="FP32">
					<dim>1</dim>
					<dim>128</dim>
					<dim>512</dim>
				</port>
			</input>
			<output>
				<port id="1" precision="FP32" names="497">
					<dim>1</dim>
					<dim>128</dim>
					<dim>512</dim>
				</port>
			</output>
		</layer>
		<layer id="154" name="498" type="Multiply" version="opset1">
			<data auto_broadcast="numpy"/>
			<rt_info>
				<attribute name="fused_names" version="0" value="498"/>
			</rt_info>
			<input>
				<port id="0" precision="FP32">
					<dim>1</dim>
					<dim>128</dim>
					<dim>512</dim>
				</port>
				<port id="1" precision="FP32">
					<dim>1</dim>
					<dim>1</dim>
					<dim>512</dim>
				</port>
			</input>
			<output>
				<port id="2" precision="FP32" names="498">
					<dim>1</dim>
					<dim>128</dim>
					<dim>512</dim>
				</port>
			</output>
		</layer>
		<layer id="155" name="model.dur_pred.att_enc.ffn_layers.0.conv_2.weight_compressed" type="Const" version="opset1">
			<data element_type="f16" shape="256, 128, 1" offset="2638212" size="65536"/>
			<output>
				<port id="0" precision="FP16">
					<dim>256</dim>
					<dim>128</dim>
					<dim>1</dim>
				</port>
			</output>
		</layer>
		<layer id="156" name="model.dur_pred.att_enc.ffn_layers.0.conv_2.weight" type="Convert" version="opset1">
			<data destination_type="f32"/>
			<rt_info>
				<attribute name="decompression" version="0"/>
				<attribute name="fused_names" version="0" value="model.dur_pred.att_enc.ffn_layers.0.conv_2.weight"/>
			</rt_info>
			<input>
				<port id="0" precision="FP16">
					<dim>256</dim>
					<dim>128</dim>
					<dim>1</dim>
				</port>
			</input>
			<output>
				<port id="1" precision="FP32" names="model.dur_pred.att_enc.ffn_layers.0.conv_2.weight">
					<dim>256</dim>
					<dim>128</dim>
					<dim>1</dim>
				</port>
			</output>
		</layer>
		<layer id="157" name="Convolution_796" type="Convolution" version="opset1">
			<data strides="1" dilations="1" pads_begin="0" pads_end="0" auto_pad="explicit"/>
			<rt_info>
				<attribute name="fused_names" version="0" value="Convolution_796"/>
			</rt_info>
			<input>
				<port id="0" precision="FP32">
					<dim>1</dim>
					<dim>128</dim>
					<dim>512</dim>
				</port>
				<port id="1" precision="FP32">
					<dim>256</dim>
					<dim>128</dim>
					<dim>1</dim>
				</port>
			</input>
			<output>
				<port id="2" precision="FP32">
					<dim>1</dim>
					<dim>256</dim>
					<dim>512</dim>
				</port>
			</output>
		</layer>
		<layer id="158" name="Reshape_816_compressed" type="Const" version="opset1">
			<data element_type="f16" shape="1, 256, 1" offset="2703748" size="512"/>
			<output>
				<port id="0" precision="FP16">
					<dim>1</dim>
					<dim>256</dim>
					<dim>1</dim>
				</port>
			</output>
		</layer>
		<layer id="159" name="Reshape_816" type="Convert" version="opset1">
			<data destination_type="f32"/>
			<rt_info>
				<attribute name="decompression" version="0"/>
			</rt_info>
			<input>
				<port id="0" precision="FP16">
					<dim>1</dim>
					<dim>256</dim>
					<dim>1</dim>
				</port>
			</input>
			<output>
				<port id="1" precision="FP32">
					<dim>1</dim>
					<dim>256</dim>
					<dim>1</dim>
				</port>
			</output>
		</layer>
		<layer id="160" name="499" type="Add" version="opset1">
			<data auto_broadcast="numpy"/>
			<rt_info>
				<attribute name="fused_names" version="0" value="499, Concat_815, Reshape_816"/>
			</rt_info>
			<input>
				<port id="0" precision="FP32">
					<dim>1</dim>
					<dim>256</dim>
					<dim>512</dim>
				</port>
				<port id="1" precision="FP32">
					<dim>1</dim>
					<dim>256</dim>
					<dim>1</dim>
				</port>
			</input>
			<output>
				<port id="2" precision="FP32" names="499">
					<dim>1</dim>
					<dim>256</dim>
					<dim>512</dim>
				</port>
			</output>
		</layer>
		<layer id="161" name="500" type="Multiply" version="opset1">
			<data auto_broadcast="numpy"/>
			<rt_info>
				<attribute name="fused_names" version="0" value="500"/>
			</rt_info>
			<input>
				<port id="0" precision="FP32">
					<dim>1</dim>
					<dim>256</dim>
					<dim>512</dim>
				</port>
				<port id="1" precision="FP32">
					<dim>1</dim>
					<dim>1</dim>
					<dim>512</dim>
				</port>
			</input>
			<output>
				<port id="2" precision="FP32" names="500">
					<dim>1</dim>
					<dim>256</dim>
					<dim>512</dim>
				</port>
			</output>
		</layer>
		<layer id="162" name="501" type="Add" version="opset1">
			<data auto_broadcast="numpy"/>
			<rt_info>
				<attribute name="fused_names" version="0" value="501"/>
			</rt_info>
			<input>
				<port id="0" precision="FP32">
					<dim>1</dim>
					<dim>256</dim>
					<dim>512</dim>
				</port>
				<port id="1" precision="FP32">
					<dim>1</dim>
					<dim>256</dim>
					<dim>512</dim>
				</port>
			</input>
			<output>
				<port id="2" precision="FP32" names="501">
					<dim>1</dim>
					<dim>256</dim>
					<dim>512</dim>
				</port>
			</output>
		</layer>
		<layer id="163" name="Constant_846" type="Const" version="opset1">
			<data element_type="i64" shape="1" offset="2571382" size="8"/>
			<rt_info>
				<attribute name="fused_names" version="0" value="Constant_846"/>
			</rt_info>
			<output>
				<port id="0" precision="I64">
					<dim>1</dim>
				</port>
			</output>
		</layer>
		<layer id="164" name="502" type="ReduceMean" version="opset1">
			<data keep_dims="true"/>
			<rt_info>
				<attribute name="fused_names" version="0" value="502"/>
			</rt_info>
			<input>
				<port id="0" precision="FP32">
					<dim>1</dim>
					<dim>256</dim>
					<dim>512</dim>
				</port>
				<port id="1" precision="I64">
					<dim>1</dim>
				</port>
			</input>
			<output>
				<port id="2" precision="FP32" names="502">
					<dim>1</dim>
					<dim>1</dim>
					<dim>512</dim>
				</port>
			</output>
		</layer>
		<layer id="165" name="508" type="Subtract" version="opset1">
			<data auto_broadcast="numpy"/>
			<rt_info>
				<attribute name="fused_names" version="0" value="508"/>
			</rt_info>
			<input>
				<port id="0" precision="FP32">
					<dim>1</dim>
					<dim>256</dim>
					<dim>512</dim>
				</port>
				<port id="1" precision="FP32">
					<dim>1</dim>
					<dim>1</dim>
					<dim>512</dim>
				</port>
			</input>
			<output>
				<port id="2" precision="FP32" names="508">
					<dim>1</dim>
					<dim>256</dim>
					<dim>512</dim>
				</port>
			</output>
		</layer>
		<layer id="166" name="Constant_21503_compressed" type="Const" version="opset1">
			<data element_type="f16" shape="1, 1, 1" offset="2571390" size="2"/>
			<output>
				<port id="0" precision="FP16">
					<dim>1</dim>
					<dim>1</dim>
					<dim>1</dim>
				</port>
			</output>
		</layer>
		<layer id="167" name="Constant_21503" type="Convert" version="opset1">
			<data destination_type="f32"/>
			<rt_info>
				<attribute name="decompression" version="0"/>
			</rt_info>
			<input>
				<port id="0" precision="FP16">
					<dim>1</dim>
					<dim>1</dim>
					<dim>1</dim>
				</port>
			</input>
			<output>
				<port id="1" precision="FP32">
					<dim>1</dim>
					<dim>1</dim>
					<dim>1</dim>
				</port>
			</output>
		</layer>
		<layer id="168" name="503" type="Subtract" version="opset1">
			<data auto_broadcast="numpy"/>
			<rt_info>
				<attribute name="fused_names" version="0" value="503"/>
			</rt_info>
			<input>
				<port id="0" precision="FP32">
					<dim>1</dim>
					<dim>256</dim>
					<dim>512</dim>
				</port>
				<port id="1" precision="FP32">
					<dim>1</dim>
					<dim>1</dim>
					<dim>512</dim>
				</port>
			</input>
			<output>
				<port id="2" precision="FP32" names="503">
					<dim>1</dim>
					<dim>256</dim>
					<dim>512</dim>
				</port>
			</output>
		</layer>
		<layer id="169" name="Constant_21501_compressed" type="Const" version="opset1">
			<data element_type="f16" shape="1, 1, 1" offset="2571392" size="2"/>
			<output>
				<port id="0" precision="FP16">
					<dim>1</dim>
					<dim>1</dim>
					<dim>1</dim>
				</port>
			</output>
		</layer>
		<layer id="170" name="Constant_21501" type="Convert" version="opset1">
			<data destination_type="f32"/>
			<rt_info>
				<attribute name="decompression" version="0"/>
			</rt_info>
			<input>
				<port id="0" precision="FP16">
					<dim>1</dim>
					<dim>1</dim>
					<dim>1</dim>
				</port>
			</input>
			<output>
				<port id="1" precision="FP32">
					<dim>1</dim>
					<dim>1</dim>
					<dim>1</dim>
				</port>
			</output>
		</layer>
		<layer id="171" name="506" type="Power" version="opset1">
			<data auto_broadcast="numpy"/>
			<rt_info>
				<attribute name="fused_names" version="0" value="506"/>
			</rt_info>
			<input>
				<port id="0" precision="FP32">
					<dim>1</dim>
					<dim>256</dim>
					<dim>512</dim>
				</port>
				<port id="1" precision="FP32">
					<dim>1</dim>
					<dim>1</dim>
					<dim>1</dim>
				</port>
			</input>
			<output>
				<port id="2" precision="FP32" names="506">
					<dim>1</dim>
					<dim>256</dim>
					<dim>512</dim>
				</port>
			</output>
		</layer>
		<layer id="172" name="Constant_850" type="Const" version="opset1">
			<data element_type="i64" shape="1" offset="2571382" size="8"/>
			<rt_info>
				<attribute name="fused_names" version="0" value="Constant_850"/>
			</rt_info>
			<output>
				<port id="0" precision="I64">
					<dim>1</dim>
				</port>
			</output>
		</layer>
		<layer id="173" name="507" type="ReduceMean" version="opset1">
			<data keep_dims="true"/>
			<rt_info>
				<attribute name="fused_names" version="0" value="507"/>
			</rt_info>
			<input>
				<port id="0" precision="FP32">
					<dim>1</dim>
					<dim>256</dim>
					<dim>512</dim>
				</port>
				<port id="1" precision="I64">
					<dim>1</dim>
				</port>
			</input>
			<output>
				<port id="2" precision="FP32" names="507">
					<dim>1</dim>
					<dim>1</dim>
					<dim>512</dim>
				</port>
			</output>
		</layer>
		<layer id="174" name="Constant_21502_compressed" type="Const" version="opset1">
			<data element_type="f16" shape="1, 1, 1" offset="2571394" size="2"/>
			<output>
				<port id="0" precision="FP16">
					<dim>1</dim>
					<dim>1</dim>
					<dim>1</dim>
				</port>
			</output>
		</layer>
		<layer id="175" name="Constant_21502" type="Convert" version="opset1">
			<data destination_type="f32"/>
			<rt_info>
				<attribute name="decompression" version="0"/>
			</rt_info>
			<input>
				<port id="0" precision="FP16">
					<dim>1</dim>
					<dim>1</dim>
					<dim>1</dim>
				</port>
			</input>
			<output>
				<port id="1" precision="FP32">
					<dim>1</dim>
					<dim>1</dim>
					<dim>1</dim>
				</port>
			</output>
		</layer>
		<layer id="176" name="510" type="Add" version="opset1">
			<data auto_broadcast="numpy"/>
			<rt_info>
				<attribute name="fused_names" version="0" value="510"/>
			</rt_info>
			<input>
				<port id="0" precision="FP32">
					<dim>1</dim>
					<dim>1</dim>
					<dim>512</dim>
				</port>
				<port id="1" precision="FP32">
					<dim>1</dim>
					<dim>1</dim>
					<dim>1</dim>
				</port>
			</input>
			<output>
				<port id="2" precision="FP32" names="510">
					<dim>1</dim>
					<dim>1</dim>
					<dim>512</dim>
				</port>
			</output>
		</layer>
		<layer id="177" name="511" type="Sqrt" version="opset1">
			<rt_info>
				<attribute name="fused_names" version="0" value="511"/>
			</rt_info>
			<input>
				<port id="0" precision="FP32">
					<dim>1</dim>
					<dim>1</dim>
					<dim>512</dim>
				</port>
			</input>
			<output>
				<port id="1" precision="FP32" names="511">
					<dim>1</dim>
					<dim>1</dim>
					<dim>512</dim>
				</port>
			</output>
		</layer>
		<layer id="178" name="513" type="Divide" version="opset1">
			<data auto_broadcast="numpy" m_pythondiv="true"/>
			<rt_info>
				<attribute name="fused_names" version="0" value="513"/>
			</rt_info>
			<input>
				<port id="0" precision="FP32">
					<dim>1</dim>
					<dim>1</dim>
					<dim>1</dim>
				</port>
				<port id="1" precision="FP32">
					<dim>1</dim>
					<dim>1</dim>
					<dim>512</dim>
				</port>
			</input>
			<output>
				<port id="2" precision="FP32" names="513">
					<dim>1</dim>
					<dim>1</dim>
					<dim>512</dim>
				</port>
			</output>
		</layer>
		<layer id="179" name="514" type="Multiply" version="opset1">
			<data auto_broadcast="numpy"/>
			<rt_info>
				<attribute name="fused_names" version="0" value="514"/>
			</rt_info>
			<input>
				<port id="0" precision="FP32">
					<dim>1</dim>
					<dim>256</dim>
					<dim>512</dim>
				</port>
				<port id="1" precision="FP32">
					<dim>1</dim>
					<dim>1</dim>
					<dim>512</dim>
				</port>
			</input>
			<output>
				<port id="2" precision="FP32" names="514">
					<dim>1</dim>
					<dim>256</dim>
					<dim>512</dim>
				</port>
			</output>
		</layer>
		<layer id="180" name="1224_compressed" type="Const" version="opset1">
			<data element_type="f16" shape="1, 256, 1" offset="2704260" size="512"/>
			<output>
				<port id="0" precision="FP16">
					<dim>1</dim>
					<dim>256</dim>
					<dim>1</dim>
				</port>
			</output>
		</layer>
		<layer id="181" name="1224" type="Convert" version="opset1">
			<data destination_type="f32"/>
			<rt_info>
				<attribute name="decompression" version="0"/>
				<attribute name="fused_names" version="0" value="1224"/>
			</rt_info>
			<input>
				<port id="0" precision="FP16">
					<dim>1</dim>
					<dim>256</dim>
					<dim>1</dim>
				</port>
			</input>
			<output>
				<port id="1" precision="FP32" names="1224">
					<dim>1</dim>
					<dim>256</dim>
					<dim>1</dim>
				</port>
			</output>
		</layer>
		<layer id="182" name="517" type="Multiply" version="opset1">
			<data auto_broadcast="numpy"/>
			<rt_info>
				<attribute name="fused_names" version="0" value="517"/>
			</rt_info>
			<input>
				<port id="0" precision="FP32">
					<dim>1</dim>
					<dim>256</dim>
					<dim>512</dim>
				</port>
				<port id="1" precision="FP32">
					<dim>1</dim>
					<dim>256</dim>
					<dim>1</dim>
				</port>
			</input>
			<output>
				<port id="2" precision="FP32" names="517">
					<dim>1</dim>
					<dim>256</dim>
					<dim>512</dim>
				</port>
			</output>
		</layer>
		<layer id="183" name="1225_compressed" type="Const" version="opset1">
			<data element_type="f16" shape="1, 256, 1" offset="2704772" size="512"/>
			<output>
				<port id="0" precision="FP16">
					<dim>1</dim>
					<dim>256</dim>
					<dim>1</dim>
				</port>
			</output>
		</layer>
		<layer id="184" name="1225" type="Convert" version="opset1">
			<data destination_type="f32"/>
			<rt_info>
				<attribute name="decompression" version="0"/>
				<attribute name="fused_names" version="0" value="1225"/>
			</rt_info>
			<input>
				<port id="0" precision="FP16">
					<dim>1</dim>
					<dim>256</dim>
					<dim>1</dim>
				</port>
			</input>
			<output>
				<port id="1" precision="FP32" names="1225">
					<dim>1</dim>
					<dim>256</dim>
					<dim>1</dim>
				</port>
			</output>
		</layer>
		<layer id="185" name="520" type="Add" version="opset1">
			<data auto_broadcast="numpy"/>
			<rt_info>
				<attribute name="fused_names" version="0" value="520"/>
			</rt_info>
			<input>
				<port id="0" precision="FP32">
					<dim>1</dim>
					<dim>256</dim>
					<dim>512</dim>
				</port>
				<port id="1" precision="FP32">
					<dim>1</dim>
					<dim>256</dim>
					<dim>1</dim>
				</port>
			</input>
			<output>
				<port id="2" precision="FP32" names="520">
					<dim>1</dim>
					<dim>256</dim>
					<dim>512</dim>
				</port>
			</output>
		</layer>
		<layer id="186" name="521" type="Multiply" version="opset1">
			<data auto_broadcast="numpy"/>
			<rt_info>
				<attribute name="fused_names" version="0" value="521"/>
			</rt_info>
			<input>
				<port id="0" precision="FP32">
					<dim>1</dim>
					<dim>256</dim>
					<dim>512</dim>
				</port>
				<port id="1" precision="FP32">
					<dim>1</dim>
					<dim>1</dim>
					<dim>512</dim>
				</port>
			</input>
			<output>
				<port id="2" precision="FP32" names="521">
					<dim>1</dim>
					<dim>256</dim>
					<dim>512</dim>
				</port>
			</output>
		</layer>
		<layer id="187" name="Constant_21504_compressed" type="Const" version="opset1">
			<data element_type="f16" shape="1, 1, 1, 1" offset="2044976" size="2"/>
			<output>
				<port id="0" precision="FP16">
					<dim>1</dim>
					<dim>1</dim>
					<dim>1</dim>
					<dim>1</dim>
				</port>
			</output>
		</layer>
		<layer id="188" name="Constant_21504" type="Convert" version="opset1">
			<data destination_type="f32"/>
			<rt_info>
				<attribute name="decompression" version="0"/>
			</rt_info>
			<input>
				<port id="0" precision="FP16">
					<dim>1</dim>
					<dim>1</dim>
					<dim>1</dim>
					<dim>1</dim>
				</port>
			</input>
			<output>
				<port id="1" precision="FP32">
					<dim>1</dim>
					<dim>1</dim>
					<dim>1</dim>
					<dim>1</dim>
				</port>
			</output>
		</layer>
		<layer id="189" name="567" type="Equal" version="opset1">
			<data auto_broadcast="numpy"/>
			<rt_info>
				<attribute name="fused_names" version="0" value="567, 568"/>
			</rt_info>
			<input>
				<port id="0" precision="FP32">
					<dim>1</dim>
					<dim>1</dim>
					<dim>512</dim>
					<dim>512</dim>
				</port>
				<port id="1" precision="FP32">
					<dim>1</dim>
					<dim>1</dim>
					<dim>1</dim>
					<dim>1</dim>
				</port>
			</input>
			<output>
				<port id="2" precision="BOOL" names="567,568">
					<dim>1</dim>
					<dim>1</dim>
					<dim>512</dim>
					<dim>512</dim>
				</port>
			</output>
		</layer>
		<layer id="190" name="569_compressed" type="Const" version="opset1">
			<data element_type="f16" shape="" offset="2044978" size="2"/>
			<output>
				<port id="0" precision="FP16"/>
			</output>
		</layer>
		<layer id="191" name="569" type="Convert" version="opset1">
			<data destination_type="f32"/>
			<rt_info>
				<attribute name="decompression" version="0"/>
				<attribute name="fused_names" version="0" value="569"/>
			</rt_info>
			<input>
				<port id="0" precision="FP16"/>
			</input>
			<output>
				<port id="1" precision="FP32" names="569"/>
			</output>
		</layer>
		<layer id="192" name="model.dur_pred.att_enc.attn_layers.1.conv_q.weight_compressed" type="Const" version="opset1">
			<data element_type="f16" shape="256, 256, 1" offset="2705284" size="131072"/>
			<output>
				<port id="0" precision="FP16">
					<dim>256</dim>
					<dim>256</dim>
					<dim>1</dim>
				</port>
			</output>
		</layer>
		<layer id="193" name="model.dur_pred.att_enc.attn_layers.1.conv_q.weight" type="Convert" version="opset1">
			<data destination_type="f32"/>
			<rt_info>
				<attribute name="decompression" version="0"/>
				<attribute name="fused_names" version="0" value="model.dur_pred.att_enc.attn_layers.1.conv_q.weight"/>
			</rt_info>
			<input>
				<port id="0" precision="FP16">
					<dim>256</dim>
					<dim>256</dim>
					<dim>1</dim>
				</port>
			</input>
			<output>
				<port id="1" precision="FP32" names="model.dur_pred.att_enc.attn_layers.1.conv_q.weight">
					<dim>256</dim>
					<dim>256</dim>
					<dim>1</dim>
				</port>
			</output>
		</layer>
		<layer id="194" name="Convolution_862" type="Convolution" version="opset1">
			<data strides="1" dilations="1" pads_begin="0" pads_end="0" auto_pad="explicit"/>
			<rt_info>
				<attribute name="fused_names" version="0" value="Convolution_862"/>
			</rt_info>
			<input>
				<port id="0" precision="FP32">
					<dim>1</dim>
					<dim>256</dim>
					<dim>512</dim>
				</port>
				<port id="1" precision="FP32">
					<dim>256</dim>
					<dim>256</dim>
					<dim>1</dim>
				</port>
			</input>
			<output>
				<port id="2" precision="FP32">
					<dim>1</dim>
					<dim>256</dim>
					<dim>512</dim>
				</port>
			</output>
		</layer>
		<layer id="195" name="Reshape_882_compressed" type="Const" version="opset1">
			<data element_type="f16" shape="1, 256, 1" offset="2836356" size="512"/>
			<output>
				<port id="0" precision="FP16">
					<dim>1</dim>
					<dim>256</dim>
					<dim>1</dim>
				</port>
			</output>
		</layer>
		<layer id="196" name="Reshape_882" type="Convert" version="opset1">
			<data destination_type="f32"/>
			<rt_info>
				<attribute name="decompression" version="0"/>
			</rt_info>
			<input>
				<port id="0" precision="FP16">
					<dim>1</dim>
					<dim>256</dim>
					<dim>1</dim>
				</port>
			</input>
			<output>
				<port id="1" precision="FP32">
					<dim>1</dim>
					<dim>256</dim>
					<dim>1</dim>
				</port>
			</output>
		</layer>
		<layer id="197" name="522" type="Add" version="opset1">
			<data auto_broadcast="numpy"/>
			<rt_info>
				<attribute name="fused_names" version="0" value="522, Concat_881, Reshape_882"/>
			</rt_info>
			<input>
				<port id="0" precision="FP32">
					<dim>1</dim>
					<dim>256</dim>
					<dim>512</dim>
				</port>
				<port id="1" precision="FP32">
					<dim>1</dim>
					<dim>256</dim>
					<dim>1</dim>
				</port>
			</input>
			<output>
				<port id="2" precision="FP32" names="522">
					<dim>1</dim>
					<dim>256</dim>
					<dim>512</dim>
				</port>
			</output>
		</layer>
		<layer id="198" name="model.dur_pred.att_enc.attn_layers.1.conv_k.weight_compressed" type="Const" version="opset1">
			<data element_type="f16" shape="256, 256, 1" offset="2836868" size="131072"/>
			<output>
				<port id="0" precision="FP16">
					<dim>256</dim>
					<dim>256</dim>
					<dim>1</dim>
				</port>
			</output>
		</layer>
		<layer id="199" name="model.dur_pred.att_enc.attn_layers.1.conv_k.weight" type="Convert" version="opset1">
			<data destination_type="f32"/>
			<rt_info>
				<attribute name="decompression" version="0"/>
				<attribute name="fused_names" version="0" value="model.dur_pred.att_enc.attn_layers.1.conv_k.weight"/>
			</rt_info>
			<input>
				<port id="0" precision="FP16">
					<dim>256</dim>
					<dim>256</dim>
					<dim>1</dim>
				</port>
			</input>
			<output>
				<port id="1" precision="FP32" names="model.dur_pred.att_enc.attn_layers.1.conv_k.weight">
					<dim>256</dim>
					<dim>256</dim>
					<dim>1</dim>
				</port>
			</output>
		</layer>
		<layer id="200" name="Convolution_910" type="Convolution" version="opset1">
			<data strides="1" dilations="1" pads_begin="0" pads_end="0" auto_pad="explicit"/>
			<rt_info>
				<attribute name="fused_names" version="0" value="Convolution_910"/>
			</rt_info>
			<input>
				<port id="0" precision="FP32">
					<dim>1</dim>
					<dim>256</dim>
					<dim>512</dim>
				</port>
				<port id="1" precision="FP32">
					<dim>256</dim>
					<dim>256</dim>
					<dim>1</dim>
				</port>
			</input>
			<output>
				<port id="2" precision="FP32">
					<dim>1</dim>
					<dim>256</dim>
					<dim>512</dim>
				</port>
			</output>
		</layer>
		<layer id="201" name="Reshape_930_compressed" type="Const" version="opset1">
			<data element_type="f16" shape="1, 256, 1" offset="2967940" size="512"/>
			<output>
				<port id="0" precision="FP16">
					<dim>1</dim>
					<dim>256</dim>
					<dim>1</dim>
				</port>
			</output>
		</layer>
		<layer id="202" name="Reshape_930" type="Convert" version="opset1">
			<data destination_type="f32"/>
			<rt_info>
				<attribute name="decompression" version="0"/>
			</rt_info>
			<input>
				<port id="0" precision="FP16">
					<dim>1</dim>
					<dim>256</dim>
					<dim>1</dim>
				</port>
			</input>
			<output>
				<port id="1" precision="FP32">
					<dim>1</dim>
					<dim>256</dim>
					<dim>1</dim>
				</port>
			</output>
		</layer>
		<layer id="203" name="523" type="Add" version="opset1">
			<data auto_broadcast="numpy"/>
			<rt_info>
				<attribute name="fused_names" version="0" value="523, Concat_929, Reshape_930"/>
			</rt_info>
			<input>
				<port id="0" precision="FP32">
					<dim>1</dim>
					<dim>256</dim>
					<dim>512</dim>
				</port>
				<port id="1" precision="FP32">
					<dim>1</dim>
					<dim>256</dim>
					<dim>1</dim>
				</port>
			</input>
			<output>
				<port id="2" precision="FP32" names="523">
					<dim>1</dim>
					<dim>256</dim>
					<dim>512</dim>
				</port>
			</output>
		</layer>
		<layer id="204" name="525" type="ShapeOf" version="opset3">
			<data output_type="i64"/>
			<rt_info>
				<attribute name="fused_names" version="0" value="525, 528, 531"/>
			</rt_info>
			<input>
				<port id="0" precision="FP32">
					<dim>1</dim>
					<dim>256</dim>
					<dim>512</dim>
				</port>
			</input>
			<output>
				<port id="1" precision="I64" names="525,528,531">
					<dim>3</dim>
				</port>
			</output>
		</layer>
		<layer id="205" name="Constant_15491" type="Const" version="opset1">
			<data element_type="i64" shape="1" offset="75776" size="8"/>
			<rt_info>
				<attribute name="fused_names" version="0" value="526, 527, 539, Constant_1008, Constant_1022"/>
			</rt_info>
			<output>
				<port id="0" precision="I64">
					<dim>1</dim>
				</port>
			</output>
		</layer>
		<layer id="206" name="Constant_1008" type="Const" version="opset1">
			<data element_type="i64" shape="" offset="75776" size="8"/>
			<rt_info>
				<attribute name="fused_names" version="0" value="Constant_1008"/>
			</rt_info>
			<output>
				<port id="0" precision="I64"/>
			</output>
		</layer>
		<layer id="207" name="527" type="Gather" version="opset8">
			<data batch_dims="0"/>
			<rt_info>
				<attribute name="fused_names" version="0" value="526, 527, 539, Constant_1008, Constant_1022"/>
			</rt_info>
			<input>
				<port id="0" precision="I64">
					<dim>3</dim>
				</port>
				<port id="1" precision="I64">
					<dim>1</dim>
				</port>
				<port id="2" precision="I64"/>
			</input>
			<output>
				<port id="3" precision="I64" names="539">
					<dim>1</dim>
				</port>
			</output>
		</layer>
		<layer id="208" name="1226" type="Const" version="opset1">
			<data element_type="i64" shape="1" offset="2308148" size="8"/>
			<rt_info>
				<attribute name="fused_names" version="0" value="1226"/>
			</rt_info>
			<output>
				<port id="0" precision="I64" names="1226">
					<dim>1</dim>
				</port>
			</output>
		</layer>
		<layer id="209" name="1227" type="Const" version="opset1">
			<data element_type="i64" shape="1" offset="2308156" size="8"/>
			<rt_info>
				<attribute name="fused_names" version="0" value="1227"/>
			</rt_info>
			<output>
				<port id="0" precision="I64" names="1227">
					<dim>1</dim>
				</port>
			</output>
		</layer>
		<layer id="210" name="534" type="ShapeOf" version="opset3">
			<data output_type="i64"/>
			<rt_info>
				<attribute name="fused_names" version="0" value="534"/>
			</rt_info>
			<input>
				<port id="0" precision="FP32">
					<dim>1</dim>
					<dim>256</dim>
					<dim>512</dim>
				</port>
			</input>
			<output>
				<port id="1" precision="I64" names="534">
					<dim>3</dim>
				</port>
			</output>
		</layer>
		<layer id="211" name="Constant_15500" type="Const" version="opset1">
			<data element_type="i64" shape="1" offset="2044960" size="8"/>
			<rt_info>
				<attribute name="fused_names" version="0" value="535, 536, 542, Constant_1020, Constant_1024"/>
			</rt_info>
			<output>
				<port id="0" precision="I64">
					<dim>1</dim>
				</port>
			</output>
		</layer>
		<layer id="212" name="Constant_1020" type="Const" version="opset1">
			<data element_type="i64" shape="" offset="75776" size="8"/>
			<rt_info>
				<attribute name="fused_names" version="0" value="Constant_1020"/>
			</rt_info>
			<output>
				<port id="0" precision="I64"/>
			</output>
		</layer>
		<layer id="213" name="536" type="Gather" version="opset8">
			<data batch_dims="0"/>
			<rt_info>
				<attribute name="fused_names" version="0" value="535, 536, 542, Constant_1020, Constant_1024"/>
			</rt_info>
			<input>
				<port id="0" precision="I64">
					<dim>3</dim>
				</port>
				<port id="1" precision="I64">
					<dim>1</dim>
				</port>
				<port id="2" precision="I64"/>
			</input>
			<output>
				<port id="3" precision="I64" names="542">
					<dim>1</dim>
				</port>
			</output>
		</layer>
		<layer id="214" name="543" type="Concat" version="opset1">
			<data axis="0"/>
			<rt_info>
				<attribute name="fused_names" version="0" value="1226, 1227, 543"/>
			</rt_info>
			<input>
				<port id="0" precision="I64">
					<dim>1</dim>
				</port>
				<port id="1" precision="I64">
					<dim>1</dim>
				</port>
				<port id="2" precision="I64">
					<dim>1</dim>
				</port>
				<port id="3" precision="I64">
					<dim>1</dim>
				</port>
			</input>
			<output>
				<port id="4" precision="I64" names="543">
					<dim>4</dim>
				</port>
			</output>
		</layer>
		<layer id="215" name="544" type="Reshape" version="opset1">
			<data special_zero="true"/>
			<rt_info>
				<attribute name="fused_names" version="0" value="544"/>
			</rt_info>
			<input>
				<port id="0" precision="FP32">
					<dim>1</dim>
					<dim>256</dim>
					<dim>512</dim>
				</port>
				<port id="1" precision="I64">
					<dim>4</dim>
				</port>
			</input>
			<output>
				<port id="2" precision="FP32" names="544">
					<dim>1</dim>
					<dim>4</dim>
					<dim>64</dim>
					<dim>512</dim>
				</port>
			</output>
		</layer>
		<layer id="216" name="Constant_1075" type="Const" version="opset1">
			<data element_type="i64" shape="4" offset="2308164" size="32"/>
			<rt_info>
				<attribute name="fused_names" version="0" value="Constant_1075"/>
			</rt_info>
			<output>
				<port id="0" precision="I64">
					<dim>4</dim>
				</port>
			</output>
		</layer>
		<layer id="217" name="545" type="Transpose" version="opset1">
			<rt_info>
				<attribute name="fused_names" version="0" value="545"/>
			</rt_info>
			<input>
				<port id="0" precision="FP32">
					<dim>1</dim>
					<dim>4</dim>
					<dim>64</dim>
					<dim>512</dim>
				</port>
				<port id="1" precision="I64">
					<dim>4</dim>
				</port>
			</input>
			<output>
				<port id="2" precision="FP32" names="545">
					<dim>1</dim>
					<dim>4</dim>
					<dim>512</dim>
					<dim>64</dim>
				</port>
			</output>
		</layer>
		<layer id="218" name="Constant_18169" type="Const" version="opset1">
			<data element_type="i64" shape="1" offset="75776" size="8"/>
			<output>
				<port id="0" precision="I64">
					<dim>1</dim>
				</port>
			</output>
		</layer>
		<layer id="219" name="1228" type="Const" version="opset1">
			<data element_type="i64" shape="1" offset="2308148" size="8"/>
			<rt_info>
				<attribute name="fused_names" version="0" value="1228"/>
			</rt_info>
			<output>
				<port id="0" precision="I64" names="1228">
					<dim>1</dim>
				</port>
			</output>
		</layer>
		<layer id="220" name="1229" type="Const" version="opset1">
			<data element_type="i64" shape="1" offset="2308156" size="8"/>
			<rt_info>
				<attribute name="fused_names" version="0" value="1229"/>
			</rt_info>
			<output>
				<port id="0" precision="I64" names="1229">
					<dim>1</dim>
				</port>
			</output>
		</layer>
		<layer id="221" name="Constant_15518" type="Const" version="opset1">
			<data element_type="i64" shape="1" offset="2044960" size="8"/>
			<rt_info>
				<attribute name="fused_names" version="0" value="532, 533, 551, Constant_1016, Constant_1079"/>
			</rt_info>
			<output>
				<port id="0" precision="I64">
					<dim>1</dim>
				</port>
			</output>
		</layer>
		<layer id="222" name="Constant_1016" type="Const" version="opset1">
			<data element_type="i64" shape="" offset="75776" size="8"/>
			<rt_info>
				<attribute name="fused_names" version="0" value="Constant_1016"/>
			</rt_info>
			<output>
				<port id="0" precision="I64"/>
			</output>
		</layer>
		<layer id="223" name="533" type="Gather" version="opset8">
			<data batch_dims="0"/>
			<rt_info>
				<attribute name="fused_names" version="0" value="532, 533, 551, Constant_1016, Constant_1079"/>
			</rt_info>
			<input>
				<port id="0" precision="I64">
					<dim>3</dim>
				</port>
				<port id="1" precision="I64">
					<dim>1</dim>
				</port>
				<port id="2" precision="I64"/>
			</input>
			<output>
				<port id="3" precision="I64" names="551">
					<dim>1</dim>
				</port>
			</output>
		</layer>
		<layer id="224" name="552" type="Concat" version="opset1">
			<data axis="0"/>
			<rt_info>
				<attribute name="fused_names" version="0" value="1228, 1229, 552"/>
			</rt_info>
			<input>
				<port id="0" precision="I64">
					<dim>1</dim>
				</port>
				<port id="1" precision="I64">
					<dim>1</dim>
				</port>
				<port id="2" precision="I64">
					<dim>1</dim>
				</port>
				<port id="3" precision="I64">
					<dim>1</dim>
				</port>
			</input>
			<output>
				<port id="4" precision="I64">
					<dim>4</dim>
				</port>
			</output>
		</layer>
		<layer id="225" name="553" type="Reshape" version="opset1">
			<data special_zero="true"/>
			<rt_info>
				<attribute name="fused_names" version="0" value="553"/>
			</rt_info>
			<input>
				<port id="0" precision="FP32">
					<dim>1</dim>
					<dim>256</dim>
					<dim>512</dim>
				</port>
				<port id="1" precision="I64">
					<dim>4</dim>
				</port>
			</input>
			<output>
				<port id="2" precision="FP32" names="553">
					<dim>1</dim>
					<dim>4</dim>
					<dim>64</dim>
					<dim>512</dim>
				</port>
			</output>
		</layer>
		<layer id="226" name="Constant_21505_compressed" type="Const" version="opset1">
			<data element_type="f16" shape="1, 1, 1, 1" offset="2308196" size="2"/>
			<output>
				<port id="0" precision="FP16">
					<dim>1</dim>
					<dim>1</dim>
					<dim>1</dim>
					<dim>1</dim>
				</port>
			</output>
		</layer>
		<layer id="227" name="Constant_21505" type="Convert" version="opset1">
			<data destination_type="f32"/>
			<rt_info>
				<attribute name="decompression" version="0"/>
			</rt_info>
			<input>
				<port id="0" precision="FP16">
					<dim>1</dim>
					<dim>1</dim>
					<dim>1</dim>
					<dim>1</dim>
				</port>
			</input>
			<output>
				<port id="1" precision="FP32">
					<dim>1</dim>
					<dim>1</dim>
					<dim>1</dim>
					<dim>1</dim>
				</port>
			</output>
		</layer>
		<layer id="228" name="Multiply_21410" type="Multiply" version="opset1">
			<data auto_broadcast="numpy"/>
			<rt_info>
				<attribute name="fused_names" version="0" value="553, 563, 564, 565"/>
			</rt_info>
			<input>
				<port id="0" precision="FP32">
					<dim>1</dim>
					<dim>4</dim>
					<dim>64</dim>
					<dim>512</dim>
				</port>
				<port id="1" precision="FP32">
					<dim>1</dim>
					<dim>1</dim>
					<dim>1</dim>
					<dim>1</dim>
				</port>
			</input>
			<output>
				<port id="2" precision="FP32">
					<dim>1</dim>
					<dim>4</dim>
					<dim>64</dim>
					<dim>512</dim>
				</port>
			</output>
		</layer>
		<layer id="229" name="565" type="MatMul" version="opset1">
			<data transpose_a="false" transpose_b="false"/>
			<rt_info>
				<attribute name="fused_names" version="0" value="553, 563, 564, 565"/>
			</rt_info>
			<input>
				<port id="0" precision="FP32">
					<dim>1</dim>
					<dim>4</dim>
					<dim>512</dim>
					<dim>64</dim>
				</port>
				<port id="1" precision="FP32">
					<dim>1</dim>
					<dim>4</dim>
					<dim>64</dim>
					<dim>512</dim>
				</port>
			</input>
			<output>
				<port id="2" precision="FP32" names="565">
					<dim>1</dim>
					<dim>4</dim>
					<dim>512</dim>
					<dim>512</dim>
				</port>
			</output>
		</layer>
		<layer id="230" name="570" type="Select" version="opset1">
			<data auto_broadcast="numpy"/>
			<rt_info>
				<attribute name="fused_names" version="0" value="570"/>
			</rt_info>
			<input>
				<port id="0" precision="BOOL">
					<dim>1</dim>
					<dim>1</dim>
					<dim>512</dim>
					<dim>512</dim>
				</port>
				<port id="1" precision="FP32"/>
				<port id="2" precision="FP32">
					<dim>1</dim>
					<dim>4</dim>
					<dim>512</dim>
					<dim>512</dim>
				</port>
			</input>
			<output>
				<port id="3" precision="FP32" names="570">
					<dim>1</dim>
					<dim>4</dim>
					<dim>512</dim>
					<dim>512</dim>
				</port>
			</output>
		</layer>
		<layer id="231" name="571" type="SoftMax" version="opset8">
			<data axis="3"/>
			<rt_info>
				<attribute name="fused_names" version="0" value="571"/>
			</rt_info>
			<input>
				<port id="0" precision="FP32">
					<dim>1</dim>
					<dim>4</dim>
					<dim>512</dim>
					<dim>512</dim>
				</port>
			</input>
			<output>
				<port id="1" precision="FP32" names="571">
					<dim>1</dim>
					<dim>4</dim>
					<dim>512</dim>
					<dim>512</dim>
				</port>
			</output>
		</layer>
		<layer id="232" name="model.dur_pred.att_enc.attn_layers.1.conv_v.weight_compressed" type="Const" version="opset1">
			<data element_type="f16" shape="256, 256, 1" offset="2968452" size="131072"/>
			<output>
				<port id="0" precision="FP16">
					<dim>256</dim>
					<dim>256</dim>
					<dim>1</dim>
				</port>
			</output>
		</layer>
		<layer id="233" name="model.dur_pred.att_enc.attn_layers.1.conv_v.weight" type="Convert" version="opset1">
			<data destination_type="f32"/>
			<rt_info>
				<attribute name="decompression" version="0"/>
				<attribute name="fused_names" version="0" value="model.dur_pred.att_enc.attn_layers.1.conv_v.weight"/>
			</rt_info>
			<input>
				<port id="0" precision="FP16">
					<dim>256</dim>
					<dim>256</dim>
					<dim>1</dim>
				</port>
			</input>
			<output>
				<port id="1" precision="FP32" names="model.dur_pred.att_enc.attn_layers.1.conv_v.weight">
					<dim>256</dim>
					<dim>256</dim>
					<dim>1</dim>
				</port>
			</output>
		</layer>
		<layer id="234" name="Convolution_958" type="Convolution" version="opset1">
			<data strides="1" dilations="1" pads_begin="0" pads_end="0" auto_pad="explicit"/>
			<rt_info>
				<attribute name="fused_names" version="0" value="Convolution_958"/>
			</rt_info>
			<input>
				<port id="0" precision="FP32">
					<dim>1</dim>
					<dim>256</dim>
					<dim>512</dim>
				</port>
				<port id="1" precision="FP32">
					<dim>256</dim>
					<dim>256</dim>
					<dim>1</dim>
				</port>
			</input>
			<output>
				<port id="2" precision="FP32">
					<dim>1</dim>
					<dim>256</dim>
					<dim>512</dim>
				</port>
			</output>
		</layer>
		<layer id="235" name="Reshape_978_compressed" type="Const" version="opset1">
			<data element_type="f16" shape="1, 256, 1" offset="3099524" size="512"/>
			<output>
				<port id="0" precision="FP16">
					<dim>1</dim>
					<dim>256</dim>
					<dim>1</dim>
				</port>
			</output>
		</layer>
		<layer id="236" name="Reshape_978" type="Convert" version="opset1">
			<data destination_type="f32"/>
			<rt_info>
				<attribute name="decompression" version="0"/>
			</rt_info>
			<input>
				<port id="0" precision="FP16">
					<dim>1</dim>
					<dim>256</dim>
					<dim>1</dim>
				</port>
			</input>
			<output>
				<port id="1" precision="FP32">
					<dim>1</dim>
					<dim>256</dim>
					<dim>1</dim>
				</port>
			</output>
		</layer>
		<layer id="237" name="524" type="Add" version="opset1">
			<data auto_broadcast="numpy"/>
			<rt_info>
				<attribute name="fused_names" version="0" value="524, Concat_977, Reshape_978"/>
			</rt_info>
			<input>
				<port id="0" precision="FP32">
					<dim>1</dim>
					<dim>256</dim>
					<dim>512</dim>
				</port>
				<port id="1" precision="FP32">
					<dim>1</dim>
					<dim>256</dim>
					<dim>1</dim>
				</port>
			</input>
			<output>
				<port id="2" precision="FP32" names="524">
					<dim>1</dim>
					<dim>256</dim>
					<dim>512</dim>
				</port>
			</output>
		</layer>
		<layer id="238" name="Constant_15527" type="Const" version="opset1">
			<data element_type="i64" shape="1" offset="75776" size="8"/>
			<rt_info>
				<attribute name="fused_names" version="0" value="526, 527, 556, Constant_1008, Constant_1130"/>
			</rt_info>
			<output>
				<port id="0" precision="I64">
					<dim>1</dim>
				</port>
			</output>
		</layer>
		<layer id="239" name="5270" type="Gather" version="opset8">
			<data batch_dims="0"/>
			<rt_info>
				<attribute name="fused_names" version="0" value="526, 527, 556, Constant_1008, Constant_1130"/>
			</rt_info>
			<input>
				<port id="0" precision="I64">
					<dim>3</dim>
				</port>
				<port id="1" precision="I64">
					<dim>1</dim>
				</port>
				<port id="2" precision="I64"/>
			</input>
			<output>
				<port id="3" precision="I64" names="556">
					<dim>1</dim>
				</port>
			</output>
		</layer>
		<layer id="240" name="1230" type="Const" version="opset1">
			<data element_type="i64" shape="1" offset="2308148" size="8"/>
			<rt_info>
				<attribute name="fused_names" version="0" value="1230"/>
			</rt_info>
			<output>
				<port id="0" precision="I64" names="1230">
					<dim>1</dim>
				</port>
			</output>
		</layer>
		<layer id="241" name="1231" type="Const" version="opset1">
			<data element_type="i64" shape="1" offset="2308156" size="8"/>
			<rt_info>
				<attribute name="fused_names" version="0" value="1231"/>
			</rt_info>
			<output>
				<port id="0" precision="I64" names="1231">
					<dim>1</dim>
				</port>
			</output>
		</layer>
		<layer id="242" name="Constant_15536" type="Const" version="opset1">
			<data element_type="i64" shape="1" offset="2044960" size="8"/>
			<rt_info>
				<attribute name="fused_names" version="0" value="532, 533, 559, Constant_1016, Constant_1132"/>
			</rt_info>
			<output>
				<port id="0" precision="I64">
					<dim>1</dim>
				</port>
			</output>
		</layer>
		<layer id="243" name="5330" type="Gather" version="opset8">
			<data batch_dims="0"/>
			<rt_info>
				<attribute name="fused_names" version="0" value="532, 533, 559, Constant_1016, Constant_1132"/>
			</rt_info>
			<input>
				<port id="0" precision="I64">
					<dim>3</dim>
				</port>
				<port id="1" precision="I64">
					<dim>1</dim>
				</port>
				<port id="2" precision="I64"/>
			</input>
			<output>
				<port id="3" precision="I64" names="559">
					<dim>1</dim>
				</port>
			</output>
		</layer>
		<layer id="244" name="560" type="Concat" version="opset1">
			<data axis="0"/>
			<rt_info>
				<attribute name="fused_names" version="0" value="1230, 1231, 560"/>
			</rt_info>
			<input>
				<port id="0" precision="I64">
					<dim>1</dim>
				</port>
				<port id="1" precision="I64">
					<dim>1</dim>
				</port>
				<port id="2" precision="I64">
					<dim>1</dim>
				</port>
				<port id="3" precision="I64">
					<dim>1</dim>
				</port>
			</input>
			<output>
				<port id="4" precision="I64" names="560">
					<dim>4</dim>
				</port>
			</output>
		</layer>
		<layer id="245" name="561" type="Reshape" version="opset1">
			<data special_zero="true"/>
			<rt_info>
				<attribute name="fused_names" version="0" value="561"/>
			</rt_info>
			<input>
				<port id="0" precision="FP32">
					<dim>1</dim>
					<dim>256</dim>
					<dim>512</dim>
				</port>
				<port id="1" precision="I64">
					<dim>4</dim>
				</port>
			</input>
			<output>
				<port id="2" precision="FP32" names="561">
					<dim>1</dim>
					<dim>4</dim>
					<dim>64</dim>
					<dim>512</dim>
				</port>
			</output>
		</layer>
		<layer id="246" name="Constant_1183" type="Const" version="opset1">
			<data element_type="i64" shape="4" offset="2308164" size="32"/>
			<rt_info>
				<attribute name="fused_names" version="0" value="Constant_1183"/>
			</rt_info>
			<output>
				<port id="0" precision="I64">
					<dim>4</dim>
				</port>
			</output>
		</layer>
		<layer id="247" name="562" type="Transpose" version="opset1">
			<rt_info>
				<attribute name="fused_names" version="0" value="562"/>
			</rt_info>
			<input>
				<port id="0" precision="FP32">
					<dim>1</dim>
					<dim>4</dim>
					<dim>64</dim>
					<dim>512</dim>
				</port>
				<port id="1" precision="I64">
					<dim>4</dim>
				</port>
			</input>
			<output>
				<port id="2" precision="FP32" names="562">
					<dim>1</dim>
					<dim>4</dim>
					<dim>512</dim>
					<dim>64</dim>
				</port>
			</output>
		</layer>
		<layer id="248" name="572" type="MatMul" version="opset1">
			<data transpose_a="false" transpose_b="false"/>
			<rt_info>
				<attribute name="fused_names" version="0" value="572"/>
			</rt_info>
			<input>
				<port id="0" precision="FP32">
					<dim>1</dim>
					<dim>4</dim>
					<dim>512</dim>
					<dim>512</dim>
				</port>
				<port id="1" precision="FP32">
					<dim>1</dim>
					<dim>4</dim>
					<dim>512</dim>
					<dim>64</dim>
				</port>
			</input>
			<output>
				<port id="2" precision="FP32" names="572">
					<dim>1</dim>
					<dim>4</dim>
					<dim>512</dim>
					<dim>64</dim>
				</port>
			</output>
		</layer>
		<layer id="249" name="Constant_1195" type="Const" version="opset1">
			<data element_type="i64" shape="4" offset="2308164" size="32"/>
			<rt_info>
				<attribute name="fused_names" version="0" value="Constant_1195"/>
			</rt_info>
			<output>
				<port id="0" precision="I64">
					<dim>4</dim>
				</port>
			</output>
		</layer>
		<layer id="250" name="573" type="Transpose" version="opset1">
			<rt_info>
				<attribute name="fused_names" version="0" value="573"/>
			</rt_info>
			<input>
				<port id="0" precision="FP32">
					<dim>1</dim>
					<dim>4</dim>
					<dim>512</dim>
					<dim>64</dim>
				</port>
				<port id="1" precision="I64">
					<dim>4</dim>
				</port>
			</input>
			<output>
				<port id="2" precision="FP32" names="573">
					<dim>1</dim>
					<dim>4</dim>
					<dim>64</dim>
					<dim>512</dim>
				</port>
			</output>
		</layer>
		<layer id="251" name="Constant_15895" type="Const" version="opset1">
			<data element_type="i64" shape="2" offset="2439782" size="16"/>
			<rt_info>
				<attribute name="fused_names" version="0" value="577"/>
			</rt_info>
			<output>
				<port id="0" precision="I64">
					<dim>2</dim>
				</port>
			</output>
		</layer>
		<layer id="252" name="Constant_15896" type="Const" version="opset1">
			<data element_type="i64" shape="" offset="75776" size="8"/>
			<output>
				<port id="0" precision="I64"/>
			</output>
		</layer>
		<layer id="253" name="Gather_15897" type="Gather" version="opset8">
			<data batch_dims="0"/>
			<rt_info>
				<attribute name="fused_names" version="0" value="577"/>
			</rt_info>
			<input>
				<port id="0" precision="I64">
					<dim>3</dim>
				</port>
				<port id="1" precision="I64">
					<dim>2</dim>
				</port>
				<port id="2" precision="I64"/>
			</input>
			<output>
				<port id="3" precision="I64">
					<dim>2</dim>
				</port>
			</output>
		</layer>
		<layer id="254" name="Constant_15563" type="Const" version="opset1">
			<data element_type="i64" shape="1" offset="2044960" size="8"/>
			<rt_info>
				<attribute name="fused_names" version="0" value="535, 536, 576, Constant_1020, Constant_1201"/>
			</rt_info>
			<output>
				<port id="0" precision="I64">
					<dim>1</dim>
				</port>
			</output>
		</layer>
		<layer id="255" name="5360" type="Gather" version="opset8">
			<data batch_dims="0"/>
			<rt_info>
				<attribute name="fused_names" version="0" value="535, 536, 576, Constant_1020, Constant_1201"/>
			</rt_info>
			<input>
				<port id="0" precision="I64">
					<dim>3</dim>
				</port>
				<port id="1" precision="I64">
					<dim>1</dim>
				</port>
				<port id="2" precision="I64"/>
			</input>
			<output>
				<port id="3" precision="I64" names="576">
					<dim>1</dim>
				</port>
			</output>
		</layer>
		<layer id="256" name="577" type="Concat" version="opset1">
			<data axis="0"/>
			<rt_info>
				<attribute name="fused_names" version="0" value="577"/>
			</rt_info>
			<input>
				<port id="0" precision="I64">
					<dim>2</dim>
				</port>
				<port id="1" precision="I64">
					<dim>1</dim>
				</port>
			</input>
			<output>
				<port id="2" precision="I64" names="577">
					<dim>3</dim>
				</port>
			</output>
		</layer>
		<layer id="257" name="578" type="Reshape" version="opset1">
			<data special_zero="true"/>
			<rt_info>
				<attribute name="fused_names" version="0" value="578"/>
			</rt_info>
			<input>
				<port id="0" precision="FP32">
					<dim>1</dim>
					<dim>4</dim>
					<dim>64</dim>
					<dim>512</dim>
				</port>
				<port id="1" precision="I64">
					<dim>3</dim>
				</port>
			</input>
			<output>
				<port id="2" precision="FP32" names="578">
					<dim>1</dim>
					<dim>256</dim>
					<dim>512</dim>
				</port>
			</output>
		</layer>
		<layer id="258" name="model.dur_pred.att_enc.attn_layers.1.conv_o.weight_compressed" type="Const" version="opset1">
			<data element_type="f16" shape="256, 256, 1" offset="3100036" size="131072"/>
			<output>
				<port id="0" precision="FP16">
					<dim>256</dim>
					<dim>256</dim>
					<dim>1</dim>
				</port>
			</output>
		</layer>
		<layer id="259" name="model.dur_pred.att_enc.attn_layers.1.conv_o.weight" type="Convert" version="opset1">
			<data destination_type="f32"/>
			<rt_info>
				<attribute name="decompression" version="0"/>
				<attribute name="fused_names" version="0" value="model.dur_pred.att_enc.attn_layers.1.conv_o.weight"/>
			</rt_info>
			<input>
				<port id="0" precision="FP16">
					<dim>256</dim>
					<dim>256</dim>
					<dim>1</dim>
				</port>
			</input>
			<output>
				<port id="1" precision="FP32" names="model.dur_pred.att_enc.attn_layers.1.conv_o.weight">
					<dim>256</dim>
					<dim>256</dim>
					<dim>1</dim>
				</port>
			</output>
		</layer>
		<layer id="260" name="Convolution_1264" type="Convolution" version="opset1">
			<data strides="1" dilations="1" pads_begin="0" pads_end="0" auto_pad="explicit"/>
			<rt_info>
				<attribute name="fused_names" version="0" value="Convolution_1264"/>
			</rt_info>
			<input>
				<port id="0" precision="FP32">
					<dim>1</dim>
					<dim>256</dim>
					<dim>512</dim>
				</port>
				<port id="1" precision="FP32">
					<dim>256</dim>
					<dim>256</dim>
					<dim>1</dim>
				</port>
			</input>
			<output>
				<port id="2" precision="FP32">
					<dim>1</dim>
					<dim>256</dim>
					<dim>512</dim>
				</port>
			</output>
		</layer>
		<layer id="261" name="Reshape_1284_compressed" type="Const" version="opset1">
			<data element_type="f16" shape="1, 256, 1" offset="3231108" size="512"/>
			<output>
				<port id="0" precision="FP16">
					<dim>1</dim>
					<dim>256</dim>
					<dim>1</dim>
				</port>
			</output>
		</layer>
		<layer id="262" name="Reshape_1284" type="Convert" version="opset1">
			<data destination_type="f32"/>
			<rt_info>
				<attribute name="decompression" version="0"/>
			</rt_info>
			<input>
				<port id="0" precision="FP16">
					<dim>1</dim>
					<dim>256</dim>
					<dim>1</dim>
				</port>
			</input>
			<output>
				<port id="1" precision="FP32">
					<dim>1</dim>
					<dim>256</dim>
					<dim>1</dim>
				</port>
			</output>
		</layer>
		<layer id="263" name="579" type="Add" version="opset1">
			<data auto_broadcast="numpy"/>
			<rt_info>
				<attribute name="fused_names" version="0" value="579, Concat_1283, Reshape_1284"/>
			</rt_info>
			<input>
				<port id="0" precision="FP32">
					<dim>1</dim>
					<dim>256</dim>
					<dim>512</dim>
				</port>
				<port id="1" precision="FP32">
					<dim>1</dim>
					<dim>256</dim>
					<dim>1</dim>
				</port>
			</input>
			<output>
				<port id="2" precision="FP32" names="579">
					<dim>1</dim>
					<dim>256</dim>
					<dim>512</dim>
				</port>
			</output>
		</layer>
		<layer id="264" name="580" type="Add" version="opset1">
			<data auto_broadcast="numpy"/>
			<rt_info>
				<attribute name="fused_names" version="0" value="580"/>
			</rt_info>
			<input>
				<port id="0" precision="FP32">
					<dim>1</dim>
					<dim>256</dim>
					<dim>512</dim>
				</port>
				<port id="1" precision="FP32">
					<dim>1</dim>
					<dim>256</dim>
					<dim>512</dim>
				</port>
			</input>
			<output>
				<port id="2" precision="FP32" names="580">
					<dim>1</dim>
					<dim>256</dim>
					<dim>512</dim>
				</port>
			</output>
		</layer>
		<layer id="265" name="Constant_1313" type="Const" version="opset1">
			<data element_type="i64" shape="1" offset="2571382" size="8"/>
			<rt_info>
				<attribute name="fused_names" version="0" value="Constant_1313"/>
			</rt_info>
			<output>
				<port id="0" precision="I64">
					<dim>1</dim>
				</port>
			</output>
		</layer>
		<layer id="266" name="581" type="ReduceMean" version="opset1">
			<data keep_dims="true"/>
			<rt_info>
				<attribute name="fused_names" version="0" value="581"/>
			</rt_info>
			<input>
				<port id="0" precision="FP32">
					<dim>1</dim>
					<dim>256</dim>
					<dim>512</dim>
				</port>
				<port id="1" precision="I64">
					<dim>1</dim>
				</port>
			</input>
			<output>
				<port id="2" precision="FP32" names="581">
					<dim>1</dim>
					<dim>1</dim>
					<dim>512</dim>
				</port>
			</output>
		</layer>
		<layer id="267" name="587" type="Subtract" version="opset1">
			<data auto_broadcast="numpy"/>
			<rt_info>
				<attribute name="fused_names" version="0" value="587"/>
			</rt_info>
			<input>
				<port id="0" precision="FP32">
					<dim>1</dim>
					<dim>256</dim>
					<dim>512</dim>
				</port>
				<port id="1" precision="FP32">
					<dim>1</dim>
					<dim>1</dim>
					<dim>512</dim>
				</port>
			</input>
			<output>
				<port id="2" precision="FP32" names="587">
					<dim>1</dim>
					<dim>256</dim>
					<dim>512</dim>
				</port>
			</output>
		</layer>
		<layer id="268" name="Constant_21508_compressed" type="Const" version="opset1">
			<data element_type="f16" shape="1, 1, 1" offset="2571390" size="2"/>
			<output>
				<port id="0" precision="FP16">
					<dim>1</dim>
					<dim>1</dim>
					<dim>1</dim>
				</port>
			</output>
		</layer>
		<layer id="269" name="Constant_21508" type="Convert" version="opset1">
			<data destination_type="f32"/>
			<rt_info>
				<attribute name="decompression" version="0"/>
			</rt_info>
			<input>
				<port id="0" precision="FP16">
					<dim>1</dim>
					<dim>1</dim>
					<dim>1</dim>
				</port>
			</input>
			<output>
				<port id="1" precision="FP32">
					<dim>1</dim>
					<dim>1</dim>
					<dim>1</dim>
				</port>
			</output>
		</layer>
		<layer id="270" name="582" type="Subtract" version="opset1">
			<data auto_broadcast="numpy"/>
			<rt_info>
				<attribute name="fused_names" version="0" value="582"/>
			</rt_info>
			<input>
				<port id="0" precision="FP32">
					<dim>1</dim>
					<dim>256</dim>
					<dim>512</dim>
				</port>
				<port id="1" precision="FP32">
					<dim>1</dim>
					<dim>1</dim>
					<dim>512</dim>
				</port>
			</input>
			<output>
				<port id="2" precision="FP32" names="582">
					<dim>1</dim>
					<dim>256</dim>
					<dim>512</dim>
				</port>
			</output>
		</layer>
		<layer id="271" name="Constant_21506_compressed" type="Const" version="opset1">
			<data element_type="f16" shape="1, 1, 1" offset="2571392" size="2"/>
			<output>
				<port id="0" precision="FP16">
					<dim>1</dim>
					<dim>1</dim>
					<dim>1</dim>
				</port>
			</output>
		</layer>
		<layer id="272" name="Constant_21506" type="Convert" version="opset1">
			<data destination_type="f32"/>
			<rt_info>
				<attribute name="decompression" version="0"/>
			</rt_info>
			<input>
				<port id="0" precision="FP16">
					<dim>1</dim>
					<dim>1</dim>
					<dim>1</dim>
				</port>
			</input>
			<output>
				<port id="1" precision="FP32">
					<dim>1</dim>
					<dim>1</dim>
					<dim>1</dim>
				</port>
			</output>
		</layer>
		<layer id="273" name="585" type="Power" version="opset1">
			<data auto_broadcast="numpy"/>
			<rt_info>
				<attribute name="fused_names" version="0" value="585"/>
			</rt_info>
			<input>
				<port id="0" precision="FP32">
					<dim>1</dim>
					<dim>256</dim>
					<dim>512</dim>
				</port>
				<port id="1" precision="FP32">
					<dim>1</dim>
					<dim>1</dim>
					<dim>1</dim>
				</port>
			</input>
			<output>
				<port id="2" precision="FP32" names="585">
					<dim>1</dim>
					<dim>256</dim>
					<dim>512</dim>
				</port>
			</output>
		</layer>
		<layer id="274" name="Constant_1317" type="Const" version="opset1">
			<data element_type="i64" shape="1" offset="2571382" size="8"/>
			<rt_info>
				<attribute name="fused_names" version="0" value="Constant_1317"/>
			</rt_info>
			<output>
				<port id="0" precision="I64">
					<dim>1</dim>
				</port>
			</output>
		</layer>
		<layer id="275" name="586" type="ReduceMean" version="opset1">
			<data keep_dims="true"/>
			<rt_info>
				<attribute name="fused_names" version="0" value="586"/>
			</rt_info>
			<input>
				<port id="0" precision="FP32">
					<dim>1</dim>
					<dim>256</dim>
					<dim>512</dim>
				</port>
				<port id="1" precision="I64">
					<dim>1</dim>
				</port>
			</input>
			<output>
				<port id="2" precision="FP32" names="586">
					<dim>1</dim>
					<dim>1</dim>
					<dim>512</dim>
				</port>
			</output>
		</layer>
		<layer id="276" name="Constant_21507_compressed" type="Const" version="opset1">
			<data element_type="f16" shape="1, 1, 1" offset="2571394" size="2"/>
			<output>
				<port id="0" precision="FP16">
					<dim>1</dim>
					<dim>1</dim>
					<dim>1</dim>
				</port>
			</output>
		</layer>
		<layer id="277" name="Constant_21507" type="Convert" version="opset1">
			<data destination_type="f32"/>
			<rt_info>
				<attribute name="decompression" version="0"/>
			</rt_info>
			<input>
				<port id="0" precision="FP16">
					<dim>1</dim>
					<dim>1</dim>
					<dim>1</dim>
				</port>
			</input>
			<output>
				<port id="1" precision="FP32">
					<dim>1</dim>
					<dim>1</dim>
					<dim>1</dim>
				</port>
			</output>
		</layer>
		<layer id="278" name="589" type="Add" version="opset1">
			<data auto_broadcast="numpy"/>
			<rt_info>
				<attribute name="fused_names" version="0" value="589"/>
			</rt_info>
			<input>
				<port id="0" precision="FP32">
					<dim>1</dim>
					<dim>1</dim>
					<dim>512</dim>
				</port>
				<port id="1" precision="FP32">
					<dim>1</dim>
					<dim>1</dim>
					<dim>1</dim>
				</port>
			</input>
			<output>
				<port id="2" precision="FP32" names="589">
					<dim>1</dim>
					<dim>1</dim>
					<dim>512</dim>
				</port>
			</output>
		</layer>
		<layer id="279" name="590" type="Sqrt" version="opset1">
			<rt_info>
				<attribute name="fused_names" version="0" value="590"/>
			</rt_info>
			<input>
				<port id="0" precision="FP32">
					<dim>1</dim>
					<dim>1</dim>
					<dim>512</dim>
				</port>
			</input>
			<output>
				<port id="1" precision="FP32" names="590">
					<dim>1</dim>
					<dim>1</dim>
					<dim>512</dim>
				</port>
			</output>
		</layer>
		<layer id="280" name="592" type="Divide" version="opset1">
			<data auto_broadcast="numpy" m_pythondiv="true"/>
			<rt_info>
				<attribute name="fused_names" version="0" value="592"/>
			</rt_info>
			<input>
				<port id="0" precision="FP32">
					<dim>1</dim>
					<dim>1</dim>
					<dim>1</dim>
				</port>
				<port id="1" precision="FP32">
					<dim>1</dim>
					<dim>1</dim>
					<dim>512</dim>
				</port>
			</input>
			<output>
				<port id="2" precision="FP32" names="592">
					<dim>1</dim>
					<dim>1</dim>
					<dim>512</dim>
				</port>
			</output>
		</layer>
		<layer id="281" name="593" type="Multiply" version="opset1">
			<data auto_broadcast="numpy"/>
			<rt_info>
				<attribute name="fused_names" version="0" value="593"/>
			</rt_info>
			<input>
				<port id="0" precision="FP32">
					<dim>1</dim>
					<dim>256</dim>
					<dim>512</dim>
				</port>
				<port id="1" precision="FP32">
					<dim>1</dim>
					<dim>1</dim>
					<dim>512</dim>
				</port>
			</input>
			<output>
				<port id="2" precision="FP32" names="593">
					<dim>1</dim>
					<dim>256</dim>
					<dim>512</dim>
				</port>
			</output>
		</layer>
		<layer id="282" name="1233_compressed" type="Const" version="opset1">
			<data element_type="f16" shape="1, 256, 1" offset="3231620" size="512"/>
			<output>
				<port id="0" precision="FP16">
					<dim>1</dim>
					<dim>256</dim>
					<dim>1</dim>
				</port>
			</output>
		</layer>
		<layer id="283" name="1233" type="Convert" version="opset1">
			<data destination_type="f32"/>
			<rt_info>
				<attribute name="decompression" version="0"/>
				<attribute name="fused_names" version="0" value="1233"/>
			</rt_info>
			<input>
				<port id="0" precision="FP16">
					<dim>1</dim>
					<dim>256</dim>
					<dim>1</dim>
				</port>
			</input>
			<output>
				<port id="1" precision="FP32" names="1233">
					<dim>1</dim>
					<dim>256</dim>
					<dim>1</dim>
				</port>
			</output>
		</layer>
		<layer id="284" name="596" type="Multiply" version="opset1">
			<data auto_broadcast="numpy"/>
			<rt_info>
				<attribute name="fused_names" version="0" value="596"/>
			</rt_info>
			<input>
				<port id="0" precision="FP32">
					<dim>1</dim>
					<dim>256</dim>
					<dim>512</dim>
				</port>
				<port id="1" precision="FP32">
					<dim>1</dim>
					<dim>256</dim>
					<dim>1</dim>
				</port>
			</input>
			<output>
				<port id="2" precision="FP32" names="596">
					<dim>1</dim>
					<dim>256</dim>
					<dim>512</dim>
				</port>
			</output>
		</layer>
		<layer id="285" name="1234_compressed" type="Const" version="opset1">
			<data element_type="f16" shape="1, 256, 1" offset="3232132" size="512"/>
			<output>
				<port id="0" precision="FP16">
					<dim>1</dim>
					<dim>256</dim>
					<dim>1</dim>
				</port>
			</output>
		</layer>
		<layer id="286" name="1234" type="Convert" version="opset1">
			<data destination_type="f32"/>
			<rt_info>
				<attribute name="decompression" version="0"/>
				<attribute name="fused_names" version="0" value="1234"/>
			</rt_info>
			<input>
				<port id="0" precision="FP16">
					<dim>1</dim>
					<dim>256</dim>
					<dim>1</dim>
				</port>
			</input>
			<output>
				<port id="1" precision="FP32" names="1234">
					<dim>1</dim>
					<dim>256</dim>
					<dim>1</dim>
				</port>
			</output>
		</layer>
		<layer id="287" name="599" type="Add" version="opset1">
			<data auto_broadcast="numpy"/>
			<rt_info>
				<attribute name="fused_names" version="0" value="599"/>
			</rt_info>
			<input>
				<port id="0" precision="FP32">
					<dim>1</dim>
					<dim>256</dim>
					<dim>512</dim>
				</port>
				<port id="1" precision="FP32">
					<dim>1</dim>
					<dim>256</dim>
					<dim>1</dim>
				</port>
			</input>
			<output>
				<port id="2" precision="FP32" names="599">
					<dim>1</dim>
					<dim>256</dim>
					<dim>512</dim>
				</port>
			</output>
		</layer>
		<layer id="288" name="600" type="Multiply" version="opset1">
			<data auto_broadcast="numpy"/>
			<rt_info>
				<attribute name="fused_names" version="0" value="600"/>
			</rt_info>
			<input>
				<port id="0" precision="FP32">
					<dim>1</dim>
					<dim>256</dim>
					<dim>512</dim>
				</port>
				<port id="1" precision="FP32">
					<dim>1</dim>
					<dim>1</dim>
					<dim>512</dim>
				</port>
			</input>
			<output>
				<port id="2" precision="FP32" names="600">
					<dim>1</dim>
					<dim>256</dim>
					<dim>512</dim>
				</port>
			</output>
		</layer>
		<layer id="289" name="model.dur_pred.att_enc.ffn_layers.1.conv_1.weight_compressed" type="Const" version="opset1">
			<data element_type="f16" shape="128, 256, 1" offset="3232644" size="65536"/>
			<output>
				<port id="0" precision="FP16">
					<dim>128</dim>
					<dim>256</dim>
					<dim>1</dim>
				</port>
			</output>
		</layer>
		<layer id="290" name="model.dur_pred.att_enc.ffn_layers.1.conv_1.weight" type="Convert" version="opset1">
			<data destination_type="f32"/>
			<rt_info>
				<attribute name="decompression" version="0"/>
				<attribute name="fused_names" version="0" value="model.dur_pred.att_enc.ffn_layers.1.conv_1.weight"/>
			</rt_info>
			<input>
				<port id="0" precision="FP16">
					<dim>128</dim>
					<dim>256</dim>
					<dim>1</dim>
				</port>
			</input>
			<output>
				<port id="1" precision="FP32" names="model.dur_pred.att_enc.ffn_layers.1.conv_1.weight">
					<dim>128</dim>
					<dim>256</dim>
					<dim>1</dim>
				</port>
			</output>
		</layer>
		<layer id="291" name="Convolution_1329" type="Convolution" version="opset1">
			<data strides="1" dilations="1" pads_begin="0" pads_end="0" auto_pad="explicit"/>
			<rt_info>
				<attribute name="fused_names" version="0" value="Convolution_1329"/>
			</rt_info>
			<input>
				<port id="0" precision="FP32">
					<dim>1</dim>
					<dim>256</dim>
					<dim>512</dim>
				</port>
				<port id="1" precision="FP32">
					<dim>128</dim>
					<dim>256</dim>
					<dim>1</dim>
				</port>
			</input>
			<output>
				<port id="2" precision="FP32">
					<dim>1</dim>
					<dim>128</dim>
					<dim>512</dim>
				</port>
			</output>
		</layer>
		<layer id="292" name="Reshape_1349_compressed" type="Const" version="opset1">
			<data element_type="f16" shape="1, 128, 1" offset="3298180" size="256"/>
			<output>
				<port id="0" precision="FP16">
					<dim>1</dim>
					<dim>128</dim>
					<dim>1</dim>
				</port>
			</output>
		</layer>
		<layer id="293" name="Reshape_1349" type="Convert" version="opset1">
			<data destination_type="f32"/>
			<rt_info>
				<attribute name="decompression" version="0"/>
			</rt_info>
			<input>
				<port id="0" precision="FP16">
					<dim>1</dim>
					<dim>128</dim>
					<dim>1</dim>
				</port>
			</input>
			<output>
				<port id="1" precision="FP32">
					<dim>1</dim>
					<dim>128</dim>
					<dim>1</dim>
				</port>
			</output>
		</layer>
		<layer id="294" name="601" type="Add" version="opset1">
			<data auto_broadcast="numpy"/>
			<rt_info>
				<attribute name="fused_names" version="0" value="601, Concat_1348, Reshape_1349"/>
			</rt_info>
			<input>
				<port id="0" precision="FP32">
					<dim>1</dim>
					<dim>128</dim>
					<dim>512</dim>
				</port>
				<port id="1" precision="FP32">
					<dim>1</dim>
					<dim>128</dim>
					<dim>1</dim>
				</port>
			</input>
			<output>
				<port id="2" precision="FP32" names="601">
					<dim>1</dim>
					<dim>128</dim>
					<dim>512</dim>
				</port>
			</output>
		</layer>
		<layer id="295" name="602" type="ReLU" version="opset1">
			<rt_info>
				<attribute name="fused_names" version="0" value="602"/>
			</rt_info>
			<input>
				<port id="0" precision="FP32">
					<dim>1</dim>
					<dim>128</dim>
					<dim>512</dim>
				</port>
			</input>
			<output>
				<port id="1" precision="FP32" names="602">
					<dim>1</dim>
					<dim>128</dim>
					<dim>512</dim>
				</port>
			</output>
		</layer>
		<layer id="296" name="603" type="Multiply" version="opset1">
			<data auto_broadcast="numpy"/>
			<rt_info>
				<attribute name="fused_names" version="0" value="603"/>
			</rt_info>
			<input>
				<port id="0" precision="FP32">
					<dim>1</dim>
					<dim>128</dim>
					<dim>512</dim>
				</port>
				<port id="1" precision="FP32">
					<dim>1</dim>
					<dim>1</dim>
					<dim>512</dim>
				</port>
			</input>
			<output>
				<port id="2" precision="FP32" names="603">
					<dim>1</dim>
					<dim>128</dim>
					<dim>512</dim>
				</port>
			</output>
		</layer>
		<layer id="297" name="model.dur_pred.att_enc.ffn_layers.1.conv_2.weight_compressed" type="Const" version="opset1">
			<data element_type="f16" shape="256, 128, 1" offset="3298436" size="65536"/>
			<output>
				<port id="0" precision="FP16">
					<dim>256</dim>
					<dim>128</dim>
					<dim>1</dim>
				</port>
			</output>
		</layer>
		<layer id="298" name="model.dur_pred.att_enc.ffn_layers.1.conv_2.weight" type="Convert" version="opset1">
			<data destination_type="f32"/>
			<rt_info>
				<attribute name="decompression" version="0"/>
				<attribute name="fused_names" version="0" value="model.dur_pred.att_enc.ffn_layers.1.conv_2.weight"/>
			</rt_info>
			<input>
				<port id="0" precision="FP16">
					<dim>256</dim>
					<dim>128</dim>
					<dim>1</dim>
				</port>
			</input>
			<output>
				<port id="1" precision="FP32" names="model.dur_pred.att_enc.ffn_layers.1.conv_2.weight">
					<dim>256</dim>
					<dim>128</dim>
					<dim>1</dim>
				</port>
			</output>
		</layer>
		<layer id="299" name="Convolution_1379" type="Convolution" version="opset1">
			<data strides="1" dilations="1" pads_begin="0" pads_end="0" auto_pad="explicit"/>
			<rt_info>
				<attribute name="fused_names" version="0" value="Convolution_1379"/>
			</rt_info>
			<input>
				<port id="0" precision="FP32">
					<dim>1</dim>
					<dim>128</dim>
					<dim>512</dim>
				</port>
				<port id="1" precision="FP32">
					<dim>256</dim>
					<dim>128</dim>
					<dim>1</dim>
				</port>
			</input>
			<output>
				<port id="2" precision="FP32">
					<dim>1</dim>
					<dim>256</dim>
					<dim>512</dim>
				</port>
			</output>
		</layer>
		<layer id="300" name="Reshape_1399_compressed" type="Const" version="opset1">
			<data element_type="f16" shape="1, 256, 1" offset="3363972" size="512"/>
			<output>
				<port id="0" precision="FP16">
					<dim>1</dim>
					<dim>256</dim>
					<dim>1</dim>
				</port>
			</output>
		</layer>
		<layer id="301" name="Reshape_1399" type="Convert" version="opset1">
			<data destination_type="f32"/>
			<rt_info>
				<attribute name="decompression" version="0"/>
			</rt_info>
			<input>
				<port id="0" precision="FP16">
					<dim>1</dim>
					<dim>256</dim>
					<dim>1</dim>
				</port>
			</input>
			<output>
				<port id="1" precision="FP32">
					<dim>1</dim>
					<dim>256</dim>
					<dim>1</dim>
				</port>
			</output>
		</layer>
		<layer id="302" name="604" type="Add" version="opset1">
			<data auto_broadcast="numpy"/>
			<rt_info>
				<attribute name="fused_names" version="0" value="604, Concat_1398, Reshape_1399"/>
			</rt_info>
			<input>
				<port id="0" precision="FP32">
					<dim>1</dim>
					<dim>256</dim>
					<dim>512</dim>
				</port>
				<port id="1" precision="FP32">
					<dim>1</dim>
					<dim>256</dim>
					<dim>1</dim>
				</port>
			</input>
			<output>
				<port id="2" precision="FP32" names="604">
					<dim>1</dim>
					<dim>256</dim>
					<dim>512</dim>
				</port>
			</output>
		</layer>
		<layer id="303" name="605" type="Multiply" version="opset1">
			<data auto_broadcast="numpy"/>
			<rt_info>
				<attribute name="fused_names" version="0" value="605"/>
			</rt_info>
			<input>
				<port id="0" precision="FP32">
					<dim>1</dim>
					<dim>256</dim>
					<dim>512</dim>
				</port>
				<port id="1" precision="FP32">
					<dim>1</dim>
					<dim>1</dim>
					<dim>512</dim>
				</port>
			</input>
			<output>
				<port id="2" precision="FP32" names="605">
					<dim>1</dim>
					<dim>256</dim>
					<dim>512</dim>
				</port>
			</output>
		</layer>
		<layer id="304" name="606" type="Add" version="opset1">
			<data auto_broadcast="numpy"/>
			<rt_info>
				<attribute name="fused_names" version="0" value="606"/>
			</rt_info>
			<input>
				<port id="0" precision="FP32">
					<dim>1</dim>
					<dim>256</dim>
					<dim>512</dim>
				</port>
				<port id="1" precision="FP32">
					<dim>1</dim>
					<dim>256</dim>
					<dim>512</dim>
				</port>
			</input>
			<output>
				<port id="2" precision="FP32" names="606">
					<dim>1</dim>
					<dim>256</dim>
					<dim>512</dim>
				</port>
			</output>
		</layer>
		<layer id="305" name="Constant_1429" type="Const" version="opset1">
			<data element_type="i64" shape="1" offset="2571382" size="8"/>
			<rt_info>
				<attribute name="fused_names" version="0" value="Constant_1429"/>
			</rt_info>
			<output>
				<port id="0" precision="I64">
					<dim>1</dim>
				</port>
			</output>
		</layer>
		<layer id="306" name="607" type="ReduceMean" version="opset1">
			<data keep_dims="true"/>
			<rt_info>
				<attribute name="fused_names" version="0" value="607"/>
			</rt_info>
			<input>
				<port id="0" precision="FP32">
					<dim>1</dim>
					<dim>256</dim>
					<dim>512</dim>
				</port>
				<port id="1" precision="I64">
					<dim>1</dim>
				</port>
			</input>
			<output>
				<port id="2" precision="FP32" names="607">
					<dim>1</dim>
					<dim>1</dim>
					<dim>512</dim>
				</port>
			</output>
		</layer>
		<layer id="307" name="613" type="Subtract" version="opset1">
			<data auto_broadcast="numpy"/>
			<rt_info>
				<attribute name="fused_names" version="0" value="613"/>
			</rt_info>
			<input>
				<port id="0" precision="FP32">
					<dim>1</dim>
					<dim>256</dim>
					<dim>512</dim>
				</port>
				<port id="1" precision="FP32">
					<dim>1</dim>
					<dim>1</dim>
					<dim>512</dim>
				</port>
			</input>
			<output>
				<port id="2" precision="FP32" names="613">
					<dim>1</dim>
					<dim>256</dim>
					<dim>512</dim>
				</port>
			</output>
		</layer>
		<layer id="308" name="Constant_21511_compressed" type="Const" version="opset1">
			<data element_type="f16" shape="1, 1, 1" offset="2571390" size="2"/>
			<output>
				<port id="0" precision="FP16">
					<dim>1</dim>
					<dim>1</dim>
					<dim>1</dim>
				</port>
			</output>
		</layer>
		<layer id="309" name="Constant_21511" type="Convert" version="opset1">
			<data destination_type="f32"/>
			<rt_info>
				<attribute name="decompression" version="0"/>
			</rt_info>
			<input>
				<port id="0" precision="FP16">
					<dim>1</dim>
					<dim>1</dim>
					<dim>1</dim>
				</port>
			</input>
			<output>
				<port id="1" precision="FP32">
					<dim>1</dim>
					<dim>1</dim>
					<dim>1</dim>
				</port>
			</output>
		</layer>
		<layer id="310" name="608" type="Subtract" version="opset1">
			<data auto_broadcast="numpy"/>
			<rt_info>
				<attribute name="fused_names" version="0" value="608"/>
			</rt_info>
			<input>
				<port id="0" precision="FP32">
					<dim>1</dim>
					<dim>256</dim>
					<dim>512</dim>
				</port>
				<port id="1" precision="FP32">
					<dim>1</dim>
					<dim>1</dim>
					<dim>512</dim>
				</port>
			</input>
			<output>
				<port id="2" precision="FP32" names="608">
					<dim>1</dim>
					<dim>256</dim>
					<dim>512</dim>
				</port>
			</output>
		</layer>
		<layer id="311" name="Constant_21509_compressed" type="Const" version="opset1">
			<data element_type="f16" shape="1, 1, 1" offset="2571392" size="2"/>
			<output>
				<port id="0" precision="FP16">
					<dim>1</dim>
					<dim>1</dim>
					<dim>1</dim>
				</port>
			</output>
		</layer>
		<layer id="312" name="Constant_21509" type="Convert" version="opset1">
			<data destination_type="f32"/>
			<rt_info>
				<attribute name="decompression" version="0"/>
			</rt_info>
			<input>
				<port id="0" precision="FP16">
					<dim>1</dim>
					<dim>1</dim>
					<dim>1</dim>
				</port>
			</input>
			<output>
				<port id="1" precision="FP32">
					<dim>1</dim>
					<dim>1</dim>
					<dim>1</dim>
				</port>
			</output>
		</layer>
		<layer id="313" name="611" type="Power" version="opset1">
			<data auto_broadcast="numpy"/>
			<rt_info>
				<attribute name="fused_names" version="0" value="611"/>
			</rt_info>
			<input>
				<port id="0" precision="FP32">
					<dim>1</dim>
					<dim>256</dim>
					<dim>512</dim>
				</port>
				<port id="1" precision="FP32">
					<dim>1</dim>
					<dim>1</dim>
					<dim>1</dim>
				</port>
			</input>
			<output>
				<port id="2" precision="FP32" names="611">
					<dim>1</dim>
					<dim>256</dim>
					<dim>512</dim>
				</port>
			</output>
		</layer>
		<layer id="314" name="Constant_1433" type="Const" version="opset1">
			<data element_type="i64" shape="1" offset="2571382" size="8"/>
			<rt_info>
				<attribute name="fused_names" version="0" value="Constant_1433"/>
			</rt_info>
			<output>
				<port id="0" precision="I64">
					<dim>1</dim>
				</port>
			</output>
		</layer>
		<layer id="315" name="612" type="ReduceMean" version="opset1">
			<data keep_dims="true"/>
			<rt_info>
				<attribute name="fused_names" version="0" value="612"/>
			</rt_info>
			<input>
				<port id="0" precision="FP32">
					<dim>1</dim>
					<dim>256</dim>
					<dim>512</dim>
				</port>
				<port id="1" precision="I64">
					<dim>1</dim>
				</port>
			</input>
			<output>
				<port id="2" precision="FP32" names="612">
					<dim>1</dim>
					<dim>1</dim>
					<dim>512</dim>
				</port>
			</output>
		</layer>
		<layer id="316" name="Constant_21510_compressed" type="Const" version="opset1">
			<data element_type="f16" shape="1, 1, 1" offset="2571394" size="2"/>
			<output>
				<port id="0" precision="FP16">
					<dim>1</dim>
					<dim>1</dim>
					<dim>1</dim>
				</port>
			</output>
		</layer>
		<layer id="317" name="Constant_21510" type="Convert" version="opset1">
			<data destination_type="f32"/>
			<rt_info>
				<attribute name="decompression" version="0"/>
			</rt_info>
			<input>
				<port id="0" precision="FP16">
					<dim>1</dim>
					<dim>1</dim>
					<dim>1</dim>
				</port>
			</input>
			<output>
				<port id="1" precision="FP32">
					<dim>1</dim>
					<dim>1</dim>
					<dim>1</dim>
				</port>
			</output>
		</layer>
		<layer id="318" name="615" type="Add" version="opset1">
			<data auto_broadcast="numpy"/>
			<rt_info>
				<attribute name="fused_names" version="0" value="615"/>
			</rt_info>
			<input>
				<port id="0" precision="FP32">
					<dim>1</dim>
					<dim>1</dim>
					<dim>512</dim>
				</port>
				<port id="1" precision="FP32">
					<dim>1</dim>
					<dim>1</dim>
					<dim>1</dim>
				</port>
			</input>
			<output>
				<port id="2" precision="FP32" names="615">
					<dim>1</dim>
					<dim>1</dim>
					<dim>512</dim>
				</port>
			</output>
		</layer>
		<layer id="319" name="616" type="Sqrt" version="opset1">
			<rt_info>
				<attribute name="fused_names" version="0" value="616"/>
			</rt_info>
			<input>
				<port id="0" precision="FP32">
					<dim>1</dim>
					<dim>1</dim>
					<dim>512</dim>
				</port>
			</input>
			<output>
				<port id="1" precision="FP32" names="616">
					<dim>1</dim>
					<dim>1</dim>
					<dim>512</dim>
				</port>
			</output>
		</layer>
		<layer id="320" name="618" type="Divide" version="opset1">
			<data auto_broadcast="numpy" m_pythondiv="true"/>
			<rt_info>
				<attribute name="fused_names" version="0" value="618"/>
			</rt_info>
			<input>
				<port id="0" precision="FP32">
					<dim>1</dim>
					<dim>1</dim>
					<dim>1</dim>
				</port>
				<port id="1" precision="FP32">
					<dim>1</dim>
					<dim>1</dim>
					<dim>512</dim>
				</port>
			</input>
			<output>
				<port id="2" precision="FP32" names="618">
					<dim>1</dim>
					<dim>1</dim>
					<dim>512</dim>
				</port>
			</output>
		</layer>
		<layer id="321" name="619" type="Multiply" version="opset1">
			<data auto_broadcast="numpy"/>
			<rt_info>
				<attribute name="fused_names" version="0" value="619"/>
			</rt_info>
			<input>
				<port id="0" precision="FP32">
					<dim>1</dim>
					<dim>256</dim>
					<dim>512</dim>
				</port>
				<port id="1" precision="FP32">
					<dim>1</dim>
					<dim>1</dim>
					<dim>512</dim>
				</port>
			</input>
			<output>
				<port id="2" precision="FP32" names="619">
					<dim>1</dim>
					<dim>256</dim>
					<dim>512</dim>
				</port>
			</output>
		</layer>
…
		<edge from-layer="695" from-port="0" to-layer="696" to-port="0"/>
		<edge from-layer="696" from-port="1" to-layer="697" to-port="1"/>
		<edge from-layer="697" from-port="2" to-layer="698" to-port="1"/>
		<edge from-layer="698" from-port="2" to-layer="874" to-port="2"/>
		<edge from-layer="699" from-port="0" to-layer="700" to-port="0"/>
		<edge from-layer="700" from-port="1" to-layer="701" to-port="1"/>
		<edge from-layer="701" from-port="2" to-layer="704" to-port="0"/>
		<edge from-layer="702" from-port="0" to-layer="703" to-port="0"/>
		<edge from-layer="703" from-port="1" to-layer="704" to-port="1"/>
		<edge from-layer="704" from-port="2" to-layer="707" to-port="0"/>
		<edge from-layer="705" from-port="0" to-layer="706" to-port="0"/>
		<edge from-layer="706" from-port="1" to-layer="707" to-port="1"/>
		<edge from-layer="707" from-port="2" to-layer="710" to-port="0"/>
		<edge from-layer="708" from-port="0" to-layer="709" to-port="0"/>
		<edge from-layer="709" from-port="1" to-layer="710" to-port="1"/>
		<edge from-layer="710" from-port="2" to-layer="713" to-port="0"/>
		<edge from-layer="711" from-port="0" to-layer="712" to-port="0"/>
		<edge from-layer="712" from-port="1" to-layer="713" to-port="1"/>
		<edge from-layer="713" from-port="2" to-layer="716" to-port="0"/>
		<edge from-layer="714" from-port="0" to-layer="715" to-port="0"/>
		<edge from-layer="715" from-port="1" to-layer="716" to-port="1"/>
		<edge from-layer="716" from-port="2" to-layer="723" to-port="0"/>
		<edge from-layer="717" from-port="0" to-layer="718" to-port="0"/>
		<edge from-layer="718" from-port="1" to-layer="719" to-port="1"/>
		<edge from-layer="719" from-port="2" to-layer="722" to-port="0"/>
		<edge from-layer="720" from-port="0" to-layer="721" to-port="0"/>
		<edge from-layer="721" from-port="1" to-layer="722" to-port="1"/>
		<edge from-layer="722" from-port="2" to-layer="723" to-port="1"/>
		<edge from-layer="723" from-port="2" to-layer="874" to-port="3"/>
		<edge from-layer="724" from-port="0" to-layer="725" to-port="0"/>
		<edge from-layer="725" from-port="1" to-layer="726" to-port="1"/>
		<edge from-layer="726" from-port="2" to-layer="729" to-port="0"/>
		<edge from-layer="727" from-port="0" to-layer="728" to-port="0"/>
		<edge from-layer="728" from-port="1" to-layer="729" to-port="1"/>
		<edge from-layer="729" from-port="2" to-layer="732" to-port="0"/>
		<edge from-layer="730" from-port="0" to-layer="731" to-port="0"/>
		<edge from-layer="731" from-port="1" to-layer="732" to-port="1"/>
		<edge from-layer="732" from-port="2" to-layer="735" to-port="0"/>
		<edge from-layer="733" from-port="0" to-layer="734" to-port="0"/>
		<edge from-layer="734" from-port="1" to-layer="735" to-port="1"/>
		<edge from-layer="735" from-port="2" to-layer="738" to-port="0"/>
		<edge from-layer="736" from-port="0" to-layer="737" to-port="0"/>
		<edge from-layer="737" from-port="1" to-layer="738" to-port="1"/>
		<edge from-layer="738" from-port="2" to-layer="741" to-port="0"/>
		<edge from-layer="739" from-port="0" to-layer="740" to-port="0"/>
		<edge from-layer="740" from-port="1" to-layer="741" to-port="1"/>
		<edge from-layer="741" from-port="2" to-layer="748" to-port="0"/>
		<edge from-layer="742" from-port="0" to-layer="743" to-port="0"/>
		<edge from-layer="743" from-port="1" to-layer="744" to-port="1"/>
		<edge from-layer="744" from-port="2" to-layer="747" to-port="0"/>
		<edge from-layer="745" from-port="0" to-layer="746" to-port="0"/>
		<edge from-layer="746" from-port="1" to-layer="747" to-port="1"/>
		<edge from-layer="747" from-port="2" to-layer="748" to-port="1"/>
		<edge from-layer="748" from-port="2" to-layer="874" to-port="4"/>
		<edge from-layer="749" from-port="0" to-layer="750" to-port="0"/>
		<edge from-layer="750" from-port="1" to-layer="751" to-port="1"/>
		<edge from-layer="751" from-port="2" to-layer="754" to-port="0"/>
		<edge from-layer="752" from-port="0" to-layer="753" to-port="0"/>
		<edge from-layer="753" from-port="1" to-layer="754" to-port="1"/>
		<edge from-layer="754" from-port="2" to-layer="757" to-port="0"/>
		<edge from-layer="755" from-port="0" to-layer="756" to-port="0"/>
		<edge from-layer="756" from-port="1" to-layer="757" to-port="1"/>
		<edge from-layer="757" from-port="2" to-layer="760" to-port="0"/>
		<edge from-layer="758" from-port="0" to-layer="759" to-port="0"/>
		<edge from-layer="759" from-port="1" to-layer="760" to-port="1"/>
		<edge from-layer="760" from-port="2" to-layer="763" to-port="0"/>
		<edge from-layer="761" from-port="0" to-layer="762" to-port="0"/>
		<edge from-layer="762" from-port="1" to-layer="763" to-port="1"/>
		<edge from-layer="763" from-port="2" to-layer="766" to-port="0"/>
		<edge from-layer="764" from-port="0" to-layer="765" to-port="0"/>
		<edge from-layer="765" from-port="1" to-layer="766" to-port="1"/>
		<edge from-layer="766" from-port="2" to-layer="773" to-port="0"/>
		<edge from-layer="767" from-port="0" to-layer="768" to-port="0"/>
		<edge from-layer="768" from-port="1" to-layer="769" to-port="1"/>
		<edge from-layer="769" from-port="2" to-layer="772" to-port="0"/>
		<edge from-layer="770" from-port="0" to-layer="771" to-port="0"/>
		<edge from-layer="771" from-port="1" to-layer="772" to-port="1"/>
		<edge from-layer="772" from-port="2" to-layer="773" to-port="1"/>
		<edge from-layer="773" from-port="2" to-layer="874" to-port="5"/>
		<edge from-layer="774" from-port="0" to-layer="775" to-port="0"/>
		<edge from-layer="775" from-port="1" to-layer="776" to-port="1"/>
		<edge from-layer="776" from-port="2" to-layer="779" to-port="0"/>
		<edge from-layer="777" from-port="0" to-layer="778" to-port="0"/>
		<edge from-layer="778" from-port="1" to-layer="779" to-port="1"/>
		<edge from-layer="779" from-port="2" to-layer="782" to-port="0"/>
		<edge from-layer="780" from-port="0" to-layer="781" to-port="0"/>
		<edge from-layer="781" from-port="1" to-layer="782" to-port="1"/>
		<edge from-layer="782" from-port="2" to-layer="785" to-port="0"/>
		<edge from-layer="783" from-port="0" to-layer="784" to-port="0"/>
		<edge from-layer="784" from-port="1" to-layer="785" to-port="1"/>
		<edge from-layer="785" from-port="2" to-layer="788" to-port="0"/>
		<edge from-layer="786" from-port="0" to-layer="787" to-port="0"/>
		<edge from-layer="787" from-port="1" to-layer="788" to-port="1"/>
		<edge from-layer="788" from-port="2" to-layer="791" to-port="0"/>
		<edge from-layer="789" from-port="0" to-layer="790" to-port="0"/>
		<edge from-layer="790" from-port="1" to-layer="791" to-port="1"/>
		<edge from-layer="791" from-port="2" to-layer="798" to-port="0"/>
		<edge from-layer="792" from-port="0" to-layer="793" to-port="0"/>
		<edge from-layer="793" from-port="1" to-layer="794" to-port="1"/>
		<edge from-layer="794" from-port="2" to-layer="797" to-port="0"/>
		<edge from-layer="795" from-port="0" to-layer="796" to-port="0"/>
		<edge from-layer="796" from-port="1" to-layer="797" to-port="1"/>
		<edge from-layer="797" from-port="2" to-layer="798" to-port="1"/>
		<edge from-layer="798" from-port="2" to-layer="874" to-port="6"/>
		<edge from-layer="799" from-port="0" to-layer="800" to-port="0"/>
		<edge from-layer="800" from-port="1" to-layer="801" to-port="1"/>
		<edge from-layer="801" from-port="2" to-layer="804" to-port="0"/>
		<edge from-layer="802" from-port="0" to-layer="803" to-port="0"/>
		<edge from-layer="803" from-port="1" to-layer="804" to-port="1"/>
		<edge from-layer="804" from-port="2" to-layer="807" to-port="0"/>
		<edge from-layer="805" from-port="0" to-layer="806" to-port="0"/>
		<edge from-layer="806" from-port="1" to-layer="807" to-port="1"/>
		<edge from-layer="807" from-port="2" to-layer="810" to-port="0"/>
		<edge from-layer="808" from-port="0" to-layer="809" to-port="0"/>
		<edge from-layer="809" from-port="1" to-layer="810" to-port="1"/>
		<edge from-layer="810" from-port="2" to-layer="813" to-port="0"/>
		<edge from-layer="811" from-port="0" to-layer="812" to-port="0"/>
		<edge from-layer="812" from-port="1" to-layer="813" to-port="1"/>
		<edge from-layer="813" from-port="2" to-layer="816" to-port="0"/>
		<edge from-layer="814" from-port="0" to-layer="815" to-port="0"/>
		<edge from-layer="815" from-port="1" to-layer="816" to-port="1"/>
		<edge from-layer="816" from-port="2" to-layer="823" to-port="0"/>
		<edge from-layer="817" from-port="0" to-layer="818" to-port="0"/>
		<edge from-layer="818" from-port="1" to-layer="819" to-port="1"/>
		<edge from-layer="819" from-port="2" to-layer="822" to-port="0"/>
		<edge from-layer="820" from-port="0" to-layer="821" to-port="0"/>
		<edge from-layer="821" from-port="1" to-layer="822" to-port="1"/>
		<edge from-layer="822" from-port="2" to-layer="823" to-port="1"/>
		<edge from-layer="823" from-port="2" to-layer="874" to-port="7"/>
		<edge from-layer="824" from-port="0" to-layer="825" to-port="0"/>
		<edge from-layer="825" from-port="1" to-layer="826" to-port="1"/>
		<edge from-layer="826" from-port="2" to-layer="829" to-port="0"/>
		<edge from-layer="827" from-port="0" to-layer="828" to-port="0"/>
		<edge from-layer="828" from-port="1" to-layer="829" to-port="1"/>
		<edge from-layer="829" from-port="2" to-layer="832" to-port="0"/>
		<edge from-layer="830" from-port="0" to-layer="831" to-port="0"/>
		<edge from-layer="831" from-port="1" to-layer="832" to-port="1"/>
		<edge from-layer="832" from-port="2" to-layer="835" to-port="0"/>
		<edge from-layer="833" from-port="0" to-layer="834" to-port="0"/>
		<edge from-layer="834" from-port="1" to-layer="835" to-port="1"/>
		<edge from-layer="835" from-port="2" to-layer="838" to-port="0"/>
		<edge from-layer="836" from-port="0" to-layer="837" to-port="0"/>
		<edge from-layer="837" from-port="1" to-layer="838" to-port="1"/>
		<edge from-layer="838" from-port="2" to-layer="841" to-port="0"/>
		<edge from-layer="839" from-port="0" to-layer="840" to-port="0"/>
		<edge from-layer="840" from-port="1" to-layer="841" to-port="1"/>
		<edge from-layer="841" from-port="2" to-layer="848" to-port="0"/>
		<edge from-layer="842" from-port="0" to-layer="843" to-port="0"/>
		<edge from-layer="843" from-port="1" to-layer="844" to-port="1"/>
		<edge from-layer="844" from-port="2" to-layer="847" to-port="0"/>
		<edge from-layer="845" from-port="0" to-layer="846" to-port="0"/>
		<edge from-layer="846" from-port="1" to-layer="847" to-port="1"/>
		<edge from-layer="847" from-port="2" to-layer="848" to-port="1"/>
		<edge from-layer="848" from-port="2" to-layer="874" to-port="8"/>
		<edge from-layer="849" from-port="0" to-layer="850" to-port="0"/>
		<edge from-layer="850" from-port="1" to-layer="851" to-port="1"/>
		<edge from-layer="851" from-port="2" to-layer="854" to-port="0"/>
		<edge from-layer="852" from-port="0" to-layer="853" to-port="0"/>
		<edge from-layer="853" from-port="1" to-layer="854" to-port="1"/>
		<edge from-layer="854" from-port="2" to-layer="857" to-port="0"/>
		<edge from-layer="855" from-port="0" to-layer="856" to-port="0"/>
		<edge from-layer="856" from-port="1" to-layer="857" to-port="1"/>
		<edge from-layer="857" from-port="2" to-layer="860" to-port="0"/>
		<edge from-layer="858" from-port="0" to-layer="859" to-port="0"/>
		<edge from-layer="859" from-port="1" to-layer="860" to-port="1"/>
		<edge from-layer="860" from-port="2" to-layer="863" to-port="0"/>
		<edge from-layer="861" from-port="0" to-layer="862" to-port="0"/>
		<edge from-layer="862" from-port="1" to-layer="863" to-port="1"/>
		<edge from-layer="863" from-port="2" to-layer="866" to-port="0"/>
		<edge from-layer="864" from-port="0" to-layer="865" to-port="0"/>
		<edge from-layer="865" from-port="1" to-layer="866" to-port="1"/>
		<edge from-layer="866" from-port="2" to-layer="873" to-port="0"/>
		<edge from-layer="867" from-port="0" to-layer="868" to-port="0"/>
		<edge from-layer="868" from-port="1" to-layer="869" to-port="1"/>
		<edge from-layer="869" from-port="2" to-layer="872" to-port="0"/>
		<edge from-layer="870" from-port="0" to-layer="871" to-port="0"/>
		<edge from-layer="871" from-port="1" to-layer="872" to-port="1"/>
		<edge from-layer="872" from-port="2" to-layer="873" to-port="1"/>
		<edge from-layer="873" from-port="2" to-layer="874" to-port="9"/>
		<edge from-layer="874" from-port="10" to-layer="875" to-port="0"/>
		<edge from-layer="875" from-port="1" to-layer="878" to-port="0"/>
		<edge from-layer="876" from-port="0" to-layer="877" to-port="0"/>
		<edge from-layer="877" from-port="1" to-layer="878" to-port="1"/>
		<edge from-layer="878" from-port="2" to-layer="881" to-port="0"/>
		<edge from-layer="879" from-port="0" to-layer="880" to-port="0"/>
		<edge from-layer="880" from-port="1" to-layer="881" to-port="1"/>
		<edge from-layer="881" from-port="2" to-layer="884" to-port="0"/>
		<edge from-layer="882" from-port="0" to-layer="883" to-port="0"/>
		<edge from-layer="883" from-port="1" to-layer="884" to-port="1"/>
		<edge from-layer="884" from-port="2" to-layer="887" to-port="0"/>
		<edge from-layer="885" from-port="0" to-layer="886" to-port="0"/>
		<edge from-layer="886" from-port="1" to-layer="887" to-port="1"/>
		<edge from-layer="887" from-port="2" to-layer="890" to-port="0"/>
		<edge from-layer="888" from-port="0" to-layer="889" to-port="0"/>
		<edge from-layer="889" from-port="1" to-layer="890" to-port="1"/>
		<edge from-layer="890" from-port="2" to-layer="893" to-port="0"/>
		<edge from-layer="891" from-port="0" to-layer="892" to-port="0"/>
		<edge from-layer="892" from-port="1" to-layer="893" to-port="1"/>
		<edge from-layer="893" from-port="2" to-layer="896" to-port="0"/>
		<edge from-layer="894" from-port="0" to-layer="895" to-port="0"/>
		<edge from-layer="895" from-port="1" to-layer="896" to-port="1"/>
		<edge from-layer="896" from-port="2" to-layer="899" to-port="0"/>
		<edge from-layer="897" from-port="0" to-layer="898" to-port="0"/>
		<edge from-layer="898" from-port="1" to-layer="899" to-port="1"/>
		<edge from-layer="899" from-port="2" to-layer="900" to-port="0"/>
		<edge from-layer="900" from-port="2" to-layer="902" to-port="0"/>
		<edge from-layer="901" from-port="0" to-layer="902" to-port="1"/>
		<edge from-layer="902" from-port="2" to-layer="921" to-port="1"/>
		<edge from-layer="902" from-port="2" to-layer="912" to-port="0"/>
		<edge from-layer="902" from-port="2" to-layer="905" to-port="0"/>
		<edge from-layer="903" from-port="0" to-layer="904" to-port="0"/>
		<edge from-layer="904" from-port="1" to-layer="905" to-port="1"/>
		<edge from-layer="905" from-port="2" to-layer="908" to-port="0"/>
		<edge from-layer="906" from-port="0" to-layer="907" to-port="0"/>
		<edge from-layer="907" from-port="1" to-layer="908" to-port="1"/>
		<edge from-layer="908" from-port="2" to-layer="909" to-port="0"/>
		<edge from-layer="909" from-port="1" to-layer="920" to-port="1"/>
		<edge from-layer="909" from-port="1" to-layer="917" to-port="0"/>
		<edge from-layer="910" from-port="0" to-layer="911" to-port="0"/>
		<edge from-layer="911" from-port="1" to-layer="912" to-port="1"/>
		<edge from-layer="912" from-port="2" to-layer="915" to-port="0"/>
		<edge from-layer="913" from-port="0" to-layer="914" to-port="0"/>
		<edge from-layer="914" from-port="1" to-layer="915" to-port="1"/>
		<edge from-layer="915" from-port="2" to-layer="916" to-port="0"/>
		<edge from-layer="916" from-port="1" to-layer="917" to-port="1"/>
		<edge from-layer="917" from-port="2" to-layer="922" to-port="0"/>
		<edge from-layer="918" from-port="0" to-layer="919" to-port="0"/>
		<edge from-layer="919" from-port="1" to-layer="920" to-port="0"/>
		<edge from-layer="920" from-port="2" to-layer="921" to-port="0"/>
		<edge from-layer="921" from-port="2" to-layer="922" to-port="1"/>
		<edge from-layer="922" from-port="2" to-layer="932" to-port="0"/>
		<edge from-layer="922" from-port="2" to-layer="925" to-port="0"/>
		<edge from-layer="922" from-port="2" to-layer="941" to-port="1"/>
		<edge from-layer="923" from-port="0" to-layer="924" to-port="0"/>
		<edge from-layer="924" from-port="1" to-layer="925" to-port="1"/>
		<edge from-layer="925" from-port="2" to-layer="928" to-port="0"/>
		<edge from-layer="926" from-port="0" to-layer="927" to-port="0"/>
		<edge from-layer="927" from-port="1" to-layer="928" to-port="1"/>
		<edge from-layer="928" from-port="2" to-layer="929" to-port="0"/>
		<edge from-layer="929" from-port="1" to-layer="940" to-port="1"/>
		<edge from-layer="929" from-port="1" to-layer="937" to-port="0"/>
		<edge from-layer="930" from-port="0" to-layer="931" to-port="0"/>
		<edge from-layer="931" from-port="1" to-layer="932" to-port="1"/>
		<edge from-layer="932" from-port="2" to-layer="935" to-port="0"/>
		<edge from-layer="933" from-port="0" to-layer="934" to-port="0"/>
		<edge from-layer="934" from-port="1" to-layer="935" to-port="1"/>
		<edge from-layer="935" from-port="2" to-layer="936" to-port="0"/>
		<edge from-layer="936" from-port="1" to-layer="937" to-port="1"/>
		<edge from-layer="937" from-port="2" to-layer="942" to-port="0"/>
		<edge from-layer="938" from-port="0" to-layer="939" to-port="0"/>
		<edge from-layer="939" from-port="1" to-layer="940" to-port="0"/>
		<edge from-layer="940" from-port="2" to-layer="941" to-port="0"/>
		<edge from-layer="941" from-port="2" to-layer="942" to-port="1"/>
		<edge from-layer="942" from-port="2" to-layer="952" to-port="0"/>
		<edge from-layer="942" from-port="2" to-layer="945" to-port="0"/>
		<edge from-layer="942" from-port="2" to-layer="961" to-port="1"/>
		<edge from-layer="943" from-port="0" to-layer="944" to-port="0"/>
		<edge from-layer="944" from-port="1" to-layer="945" to-port="1"/>
		<edge from-layer="945" from-port="2" to-layer="948" to-port="0"/>
		<edge from-layer="946" from-port="0" to-layer="947" to-port="0"/>
		<edge from-layer="947" from-port="1" to-layer="948" to-port="1"/>
		<edge from-layer="948" from-port="2" to-layer="949" to-port="0"/>
		<edge from-layer="949" from-port="1" to-layer="960" to-port="1"/>
		<edge from-layer="949" from-port="1" to-layer="957" to-port="0"/>
		<edge from-layer="950" from-port="0" to-layer="951" to-port="0"/>
		<edge from-layer="951" from-port="1" to-layer="952" to-port="1"/>
		<edge from-layer="952" from-port="2" to-layer="955" to-port="0"/>
		<edge from-layer="953" from-port="0" to-layer="954" to-port="0"/>
		<edge from-layer="954" from-port="1" to-layer="955" to-port="1"/>
		<edge from-layer="955" from-port="2" to-layer="956" to-port="0"/>
		<edge from-layer="956" from-port="1" to-layer="957" to-port="1"/>
		<edge from-layer="957" from-port="2" to-layer="962" to-port="0"/>
		<edge from-layer="958" from-port="0" to-layer="959" to-port="0"/>
		<edge from-layer="959" from-port="1" to-layer="960" to-port="0"/>
		<edge from-layer="960" from-port="2" to-layer="961" to-port="0"/>
		<edge from-layer="961" from-port="2" to-layer="962" to-port="1"/>
		<edge from-layer="962" from-port="2" to-layer="972" to-port="0"/>
		<edge from-layer="962" from-port="2" to-layer="965" to-port="0"/>
		<edge from-layer="962" from-port="2" to-layer="981" to-port="1"/>
		<edge from-layer="963" from-port="0" to-layer="964" to-port="0"/>
		<edge from-layer="964" from-port="1" to-layer="965" to-port="1"/>
		<edge from-layer="965" from-port="2" to-layer="968" to-port="0"/>
		<edge from-layer="966" from-port="0" to-layer="967" to-port="0"/>
		<edge from-layer="967" from-port="1" to-layer="968" to-port="1"/>
		<edge from-layer="968" from-port="2" to-layer="969" to-port="0"/>
		<edge from-layer="969" from-port="1" to-layer="977" to-port="0"/>
		<edge from-layer="969" from-port="1" to-layer="980" to-port="1"/>
		<edge from-layer="970" from-port="0" to-layer="971" to-port="0"/>
		<edge from-layer="971" from-port="1" to-layer="972" to-port="1"/>
		<edge from-layer="972" from-port="2" to-layer="975" to-port="0"/>
		<edge from-layer="973" from-port="0" to-layer="974" to-port="0"/>
		<edge from-layer="974" from-port="1" to-layer="975" to-port="1"/>
		<edge from-layer="975" from-port="2" to-layer="976" to-port="0"/>
		<edge from-layer="976" from-port="1" to-layer="977" to-port="1"/>
		<edge from-layer="977" from-port="2" to-layer="982" to-port="0"/>
		<edge from-layer="978" from-port="0" to-layer="979" to-port="0"/>
		<edge from-layer="979" from-port="1" to-layer="980" to-port="0"/>
		<edge from-layer="980" from-port="2" to-layer="981" to-port="0"/>
		<edge from-layer="981" from-port="2" to-layer="982" to-port="1"/>
		<edge from-layer="982" from-port="2" to-layer="984" to-port="0"/>
		<edge from-layer="983" from-port="0" to-layer="984" to-port="1"/>
		<edge from-layer="984" from-port="2" to-layer="985" to-port="0"/>
		<edge from-layer="985" from-port="2" to-layer="1049" to-port="0"/>
		<edge from-layer="985" from-port="2" to-layer="1088" to-port="0"/>
		<edge from-layer="985" from-port="2" to-layer="998" to-port="0"/>
		<edge from-layer="985" from-port="2" to-layer="1004" to-port="0"/>
		<edge from-layer="986" from-port="0" to-layer="987" to-port="1"/>
		<edge from-layer="987" from-port="2" to-layer="990" to-port="0"/>
		<edge from-layer="988" from-port="0" to-layer="989" to-port="1"/>
		<edge from-layer="989" from-port="2" to-layer="990" to-port="1"/>
		<edge from-layer="990" from-port="2" to-layer="993" to-port="0"/>
		<edge from-layer="990" from-port="2" to-layer="1155" to-port="0"/>
		<edge from-layer="991" from-port="0" to-layer="992" to-port="0"/>
		<edge from-layer="992" from-port="1" to-layer="993" to-port="1"/>
		<edge from-layer="993" from-port="2" to-layer="1045" to-port="0"/>
		<edge from-layer="994" from-port="0" to-layer="995" to-port="0"/>
		<edge from-layer="995" from-port="1" to-layer="1045" to-port="1"/>
		<edge from-layer="996" from-port="0" to-layer="997" to-port="0"/>
		<edge from-layer="997" from-port="1" to-layer="998" to-port="1"/>
		<edge from-layer="998" from-port="2" to-layer="1001" to-port="0"/>
		<edge from-layer="999" from-port="0" to-layer="1000" to-port="0"/>
		<edge from-layer="1000" from-port="1" to-layer="1001" to-port="1"/>
		<edge from-layer="1001" from-port="2" to-layer="1014" to-port="0"/>
		<edge from-layer="1001" from-port="2" to-layer="1019" to-port="0"/>
		<edge from-layer="1002" from-port="0" to-layer="1003" to-port="0"/>
		<edge from-layer="1003" from-port="1" to-layer="1004" to-port="1"/>
		<edge from-layer="1004" from-port="2" to-layer="1007" to-port="0"/>
		<edge from-layer="1005" from-port="0" to-layer="1006" to-port="0"/>
		<edge from-layer="1006" from-port="1" to-layer="1007" to-port="1"/>
		<edge from-layer="1007" from-port="2" to-layer="1008" to-port="0"/>
		<edge from-layer="1007" from-port="2" to-layer="1029" to-port="0"/>
		<edge from-layer="1008" from-port="1" to-layer="1027" to-port="0"/>
		<edge from-layer="1008" from-port="1" to-layer="1011" to-port="0"/>
		<edge from-layer="1008" from-port="1" to-layer="1054" to-port="0"/>
		<edge from-layer="1008" from-port="1" to-layer="1058" to-port="0"/>
		<edge from-layer="1008" from-port="1" to-layer="1077" to-port="0"/>
		<edge from-layer="1009" from-port="0" to-layer="1011" to-port="1"/>
		<edge from-layer="1010" from-port="0" to-layer="1054" to-port="2"/>
		<edge from-layer="1010" from-port="0" to-layer="1011" to-port="2"/>
		<edge from-layer="1011" from-port="3" to-layer="1018" to-port="0"/>
		<edge from-layer="1012" from-port="0" to-layer="1018" to-port="1"/>
		<edge from-layer="1013" from-port="0" to-layer="1018" to-port="2"/>
		<edge from-layer="1014" from-port="1" to-layer="1079" to-port="0"/>
		<edge from-layer="1014" from-port="1" to-layer="1017" to-port="0"/>
		<edge from-layer="1015" from-port="0" to-layer="1017" to-port="1"/>
		<edge from-layer="1016" from-port="0" to-layer="1017" to-port="2"/>
		<edge from-layer="1016" from-port="0" to-layer="1079" to-port="2"/>
		<edge from-layer="1017" from-port="3" to-layer="1018" to-port="3"/>
		<edge from-layer="1018" from-port="4" to-layer="1019" to-port="1"/>
		<edge from-layer="1019" from-port="2" to-layer="1021" to-port="0"/>
		<edge from-layer="1020" from-port="0" to-layer="1021" to-port="1"/>
		<edge from-layer="1021" from-port="2" to-layer="1036" to-port="0"/>
		<edge from-layer="1021" from-port="2" to-layer="1033" to-port="0"/>
		<edge from-layer="1021" from-port="2" to-layer="1067" to-port="0"/>
		<edge from-layer="1022" from-port="0" to-layer="1028" to-port="0"/>
		<edge from-layer="1023" from-port="0" to-layer="1028" to-port="1"/>
		<edge from-layer="1024" from-port="0" to-layer="1028" to-port="2"/>
		<edge from-layer="1025" from-port="0" to-layer="1027" to-port="1"/>
		<edge from-layer="1026" from-port="0" to-layer="1027" to-port="2"/>
		<edge from-layer="1026" from-port="0" to-layer="1058" to-port="2"/>
		<edge from-layer="1027" from-port="3" to-layer="1028" to-port="3"/>
		<edge from-layer="1028" from-port="4" to-layer="1029" to-port="1"/>
		<edge from-layer="1029" from-port="2" to-layer="1032" to-port="0"/>
		<edge from-layer="1030" from-port="0" to-layer="1031" to-port="0"/>
		<edge from-layer="1031" from-port="1" to-layer="1032" to-port="1"/>
		<edge from-layer="1032" from-port="2" to-layer="1033" to-port="1"/>
		<edge from-layer="1033" from-port="2" to-layer="1044" to-port="0"/>
		<edge from-layer="1034" from-port="0" to-layer="1035" to-port="0"/>
		<edge from-layer="1035" from-port="1" to-layer="1036" to-port="1"/>
		<edge from-layer="1036" from-port="2" to-layer="1038" to-port="0"/>
		<edge from-layer="1036" from-port="2" to-layer="1039" to-port="0"/>
		<edge from-layer="1037" from-port="0" to-layer="1038" to-port="1"/>
		<edge from-layer="1038" from-port="2" to-layer="1039" to-port="1"/>
		<edge from-layer="1039" from-port="2" to-layer="1040" to-port="0"/>
		<edge from-layer="1040" from-port="2" to-layer="1043" to-port="0"/>
		<edge from-layer="1041" from-port="0" to-layer="1042" to-port="0"/>
		<edge from-layer="1042" from-port="1" to-layer="1043" to-port="1"/>
		<edge from-layer="1043" from-port="2" to-layer="1044" to-port="1"/>
		<edge from-layer="1044" from-port="2" to-layer="1045" to-port="2"/>
		<edge from-layer="1045" from-port="3" to-layer="1046" to-port="0"/>
		<edge from-layer="1046" from-port="1" to-layer="1063" to-port="0"/>
		<edge from-layer="1046" from-port="1" to-layer="1064" to-port="0"/>
		<edge from-layer="1047" from-port="0" to-layer="1048" to-port="0"/>
		<edge from-layer="1048" from-port="1" to-layer="1049" to-port="1"/>
		<edge from-layer="1049" from-port="2" to-layer="1052" to-port="0"/>
		<edge from-layer="1050" from-port="0" to-layer="1051" to-port="0"/>
		<edge from-layer="1051" from-port="1" to-layer="1052" to-port="1"/>
		<edge from-layer="1052" from-port="2" to-layer="1060" to-port="0"/>
		<edge from-layer="1053" from-port="0" to-layer="1054" to-port="1"/>
		<edge from-layer="1054" from-port="3" to-layer="1059" to-port="0"/>
		<edge from-layer="1055" from-port="0" to-layer="1059" to-port="1"/>
		<edge from-layer="1056" from-port="0" to-layer="1059" to-port="2"/>
		<edge from-layer="1057" from-port="0" to-layer="1058" to-port="1"/>
		<edge from-layer="1058" from-port="3" to-layer="1059" to-port="3"/>
		<edge from-layer="1059" from-port="4" to-layer="1060" to-port="1"/>
		<edge from-layer="1060" from-port="2" to-layer="1062" to-port="0"/>
		<edge from-layer="1061" from-port="0" to-layer="1062" to-port="1"/>
		<edge from-layer="1062" from-port="2" to-layer="1063" to-port="1"/>
		<edge from-layer="1063" from-port="2" to-layer="1072" to-port="0"/>
		<edge from-layer="1064" from-port="2" to-layer="1071" to-port="0"/>
		<edge from-layer="1065" from-port="0" to-layer="1066" to-port="0"/>
		<edge from-layer="1066" from-port="1" to-layer="1067" to-port="1"/>
		<edge from-layer="1067" from-port="2" to-layer="1070" to-port="0"/>
		<edge from-layer="1068" from-port="0" to-layer="1069" to-port="0"/>
		<edge from-layer="1069" from-port="1" to-layer="1070" to-port="1"/>
		<edge from-layer="1070" from-port="2" to-layer="1071" to-port="1"/>
		<edge from-layer="1071" from-port="2" to-layer="1072" to-port="1"/>
		<edge from-layer="1072" from-port="2" to-layer="1074" to-port="0"/>
		<edge from-layer="1073" from-port="0" to-layer="1074" to-port="1"/>
		<edge from-layer="1074" from-port="2" to-layer="1081" to-port="0"/>
		<edge from-layer="1075" from-port="0" to-layer="1077" to-port="1"/>
		<edge from-layer="1076" from-port="0" to-layer="1077" to-port="2"/>
		<edge from-layer="1077" from-port="3" to-layer="1080" to-port="0"/>
		<edge from-layer="1078" from-port="0" to-layer="1079" to-port="1"/>
		<edge from-layer="1079" from-port="3" to-layer="1080" to-port="1"/>
		<edge from-layer="1080" from-port="2" to-layer="1081" to-port="1"/>
		<edge from-layer="1081" from-port="2" to-layer="1084" to-port="0"/>
		<edge from-layer="1082" from-port="0" to-layer="1083" to-port="0"/>
		<edge from-layer="1083" from-port="1" to-layer="1084" to-port="1"/>
		<edge from-layer="1084" from-port="2" to-layer="1087" to-port="0"/>
		<edge from-layer="1085" from-port="0" to-layer="1086" to-port="0"/>
		<edge from-layer="1086" from-port="1" to-layer="1087" to-port="1"/>
		<edge from-layer="1087" from-port="2" to-layer="1088" to-port="1"/>
		<edge from-layer="1088" from-port="2" to-layer="1091" to-port="0"/>
		<edge from-layer="1088" from-port="2" to-layer="1094" to-port="0"/>
		<edge from-layer="1088" from-port="2" to-layer="1090" to-port="0"/>
		<edge from-layer="1089" from-port="0" to-layer="1090" to-port="1"/>
		<edge from-layer="1090" from-port="2" to-layer="1091" to-port="1"/>
		<edge from-layer="1090" from-port="2" to-layer="1094" to-port="1"/>
		<edge from-layer="1091" from-port="2" to-layer="1105" to-port="0"/>
		<edge from-layer="1092" from-port="0" to-layer="1093" to-port="0"/>
		<edge from-layer="1093" from-port="1" to-layer="1104" to-port="0"/>
		<edge from-layer="1094" from-port="2" to-layer="1097" to-port="0"/>
		<edge from-layer="1095" from-port="0" to-layer="1096" to-port="0"/>
		<edge from-layer="1096" from-port="1" to-layer="1097" to-port="1"/>
		<edge from-layer="1097" from-port="2" to-layer="1099" to-port="0"/>
		<edge from-layer="1098" from-port="0" to-layer="1099" to-port="1"/>
		<edge from-layer="1099" from-port="2" to-layer="1102" to-port="0"/>
		<edge from-layer="1100" from-port="0" to-layer="1101" to-port="0"/>
		<edge from-layer="1101" from-port="1" to-layer="1102" to-port="1"/>
		<edge from-layer="1102" from-port="2" to-layer="1103" to-port="0"/>
		<edge from-layer="1103" from-port="1" to-layer="1104" to-port="1"/>
		<edge from-layer="1104" from-port="2" to-layer="1105" to-port="1"/>
		<edge from-layer="1105" from-port="2" to-layer="1108" to-port="0"/>
		<edge from-layer="1106" from-port="0" to-layer="1107" to-port="0"/>
		<edge from-layer="1107" from-port="1" to-layer="1108" to-port="1"/>
		<edge from-layer="1108" from-port="2" to-layer="1111" to-port="0"/>
		<edge from-layer="1109" from-port="0" to-layer="1110" to-port="0"/>
		<edge from-layer="1110" from-port="1" to-layer="1111" to-port="1"/>
		<edge from-layer="1111" from-port="2" to-layer="1112" to-port="0"/>
		<edge from-layer="1111" from-port="2" to-layer="1128" to-port="0"/>
		<edge from-layer="1112" from-port="2" to-layer="1115" to-port="0"/>
		<edge from-layer="1113" from-port="0" to-layer="1114" to-port="0"/>
		<edge from-layer="1114" from-port="1" to-layer="1115" to-port="1"/>
		<edge from-layer="1115" from-port="2" to-layer="1118" to-port="0"/>
		<edge from-layer="1116" from-port="0" to-layer="1117" to-port="0"/>
		<edge from-layer="1117" from-port="1" to-layer="1118" to-port="1"/>
		<edge from-layer="1118" from-port="2" to-layer="1119" to-port="0"/>
		<edge from-layer="1119" from-port="1" to-layer="1120" to-port="0"/>
		<edge from-layer="1120" from-port="2" to-layer="1123" to-port="0"/>
		<edge from-layer="1121" from-port="0" to-layer="1122" to-port="0"/>
		<edge from-layer="1122" from-port="1" to-layer="1123" to-port="1"/>
		<edge from-layer="1123" from-port="2" to-layer="1126" to-port="0"/>
		<edge from-layer="1124" from-port="0" to-layer="1125" to-port="0"/>
		<edge from-layer="1125" from-port="1" to-layer="1126" to-port="1"/>
		<edge from-layer="1126" from-port="2" to-layer="1127" to-port="0"/>
		<edge from-layer="1127" from-port="2" to-layer="1128" to-port="1"/>
		<edge from-layer="1128" from-port="2" to-layer="1131" to-port="0"/>
		<edge from-layer="1128" from-port="2" to-layer="1134" to-port="0"/>
		<edge from-layer="1128" from-port="2" to-layer="1130" to-port="0"/>
		<edge from-layer="1129" from-port="0" to-layer="1130" to-port="1"/>
		<edge from-layer="1130" from-port="2" to-layer="1131" to-port="1"/>
		<edge from-layer="1130" from-port="2" to-layer="1134" to-port="1"/>
		<edge from-layer="1131" from-port="2" to-layer="1145" to-port="0"/>
		<edge from-layer="1132" from-port="0" to-layer="1133" to-port="0"/>
		<edge from-layer="1133" from-port="1" to-layer="1144" to-port="0"/>
		<edge from-layer="1134" from-port="2" to-layer="1137" to-port="0"/>
		<edge from-layer="1135" from-port="0" to-layer="1136" to-port="0"/>
		<edge from-layer="1136" from-port="1" to-layer="1137" to-port="1"/>
		<edge from-layer="1137" from-port="2" to-layer="1139" to-port="0"/>
		<edge from-layer="1138" from-port="0" to-layer="1139" to-port="1"/>
		<edge from-layer="1139" from-port="2" to-layer="1142" to-port="0"/>
		<edge from-layer="1140" from-port="0" to-layer="1141" to-port="0"/>
		<edge from-layer="1141" from-port="1" to-layer="1142" to-port="1"/>
		<edge from-layer="1142" from-port="2" to-layer="1143" to-port="0"/>
		<edge from-layer="1143" from-port="1" to-layer="1144" to-port="1"/>
		<edge from-layer="1144" from-port="2" to-layer="1145" to-port="1"/>
		<edge from-layer="1145" from-port="2" to-layer="1148" to-port="0"/>
		<edge from-layer="1146" from-port="0" to-layer="1147" to-port="0"/>
		<edge from-layer="1147" from-port="1" to-layer="1148" to-port="1"/>
		<edge from-layer="1148" from-port="2" to-layer="1151" to-port="0"/>
		<edge from-layer="1149" from-port="0" to-layer="1150" to-port="0"/>
		<edge from-layer="1150" from-port="1" to-layer="1151" to-port="1"/>
		<edge from-layer="1151" from-port="2" to-layer="1152" to-port="0"/>
		<edge from-layer="1152" from-port="2" to-layer="1160" to-port="0"/>
		<edge from-layer="1152" from-port="2" to-layer="1211" to-port="0"/>
		<edge from-layer="1152" from-port="2" to-layer="1166" to-port="0"/>
		<edge from-layer="1152" from-port="2" to-layer="1250" to-port="0"/>
		<edge from-layer="1153" from-port="0" to-layer="1154" to-port="0"/>
		<edge from-layer="1154" from-port="1" to-layer="1155" to-port="1"/>
		<edge from-layer="1155" from-port="2" to-layer="1207" to-port="0"/>
		<edge from-layer="1156" from-port="0" to-layer="1157" to-port="0"/>
		<edge from-layer="1157" from-port="1" to-layer="1207" to-port="1"/>
		<edge from-layer="1158" from-port="0" to-layer="1159" to-port="0"/>
		<edge from-layer="1159" from-port="1" to-layer="1160" to-port="1"/>
		<edge from-layer="1160" from-port="2" to-layer="1163" to-port="0"/>
		<edge from-layer="1161" from-port="0" to-layer="1162" to-port="0"/>
		<edge from-layer="1162" from-port="1" to-layer="1163" to-port="1"/>
		<edge from-layer="1163" from-port="2" to-layer="1181" to-port="0"/>
		<edge from-layer="1163" from-port="2" to-layer="1176" to-port="0"/>
		<edge from-layer="1164" from-port="0" to-layer="1165" to-port="0"/>
		<edge from-layer="1165" from-port="1" to-layer="1166" to-port="1"/>
		<edge from-layer="1166" from-port="2" to-layer="1169" to-port="0"/>
		<edge from-layer="1167" from-port="0" to-layer="1168" to-port="0"/>
		<edge from-layer="1168" from-port="1" to-layer="1169" to-port="1"/>
		<edge from-layer="1169" from-port="2" to-layer="1170" to-port="0"/>
		<edge from-layer="1169" from-port="2" to-layer="1191" to-port="0"/>
		<edge from-layer="1170" from-port="1" to-layer="1189" to-port="0"/>
		<edge from-layer="1170" from-port="1" to-layer="1173" to-port="0"/>
		<edge from-layer="1170" from-port="1" to-layer="1216" to-port="0"/>
		<edge from-layer="1170" from-port="1" to-layer="1239" to-port="0"/>
		<edge from-layer="1170" from-port="1" to-layer="1220" to-port="0"/>
		<edge from-layer="1171" from-port="0" to-layer="1173" to-port="1"/>
		<edge from-layer="1172" from-port="0" to-layer="1173" to-port="2"/>
		<edge from-layer="1172" from-port="0" to-layer="1216" to-port="2"/>
		<edge from-layer="1173" from-port="3" to-layer="1180" to-port="0"/>
		<edge from-layer="1174" from-port="0" to-layer="1180" to-port="1"/>
		<edge from-layer="1175" from-port="0" to-layer="1180" to-port="2"/>
		<edge from-layer="1176" from-port="1" to-layer="1241" to-port="0"/>
		<edge from-layer="1176" from-port="1" to-layer="1179" to-port="0"/>
		<edge from-layer="1177" from-port="0" to-layer="1179" to-port="1"/>
		<edge from-layer="1178" from-port="0" to-layer="1241" to-port="2"/>
		<edge from-layer="1178" from-port="0" to-layer="1179" to-port="2"/>
		<edge from-layer="1179" from-port="3" to-layer="1180" to-port="3"/>
		<edge from-layer="1180" from-port="4" to-layer="1181" to-port="1"/>
		<edge from-layer="1181" from-port="2" to-layer="1183" to-port="0"/>
		<edge from-layer="1182" from-port="0" to-layer="1183" to-port="1"/>
		<edge from-layer="1183" from-port="2" to-layer="1198" to-port="0"/>
		<edge from-layer="1183" from-port="2" to-layer="1229" to-port="0"/>
		<edge from-layer="1183" from-port="2" to-layer="1195" to-port="0"/>
		<edge from-layer="1184" from-port="0" to-layer="1190" to-port="0"/>
		<edge from-layer="1185" from-port="0" to-layer="1190" to-port="1"/>
		<edge from-layer="1186" from-port="0" to-layer="1190" to-port="2"/>
		<edge from-layer="1187" from-port="0" to-layer="1189" to-port="1"/>
		<edge from-layer="1188" from-port="0" to-layer="1220" to-port="2"/>
		<edge from-layer="1188" from-port="0" to-layer="1189" to-port="2"/>
		<edge from-layer="1189" from-port="3" to-layer="1190" to-port="3"/>
		<edge from-layer="1190" from-port="4" to-layer="1191" to-port="1"/>
		<edge from-layer="1191" from-port="2" to-layer="1194" to-port="0"/>
		<edge from-layer="1192" from-port="0" to-layer="1193" to-port="0"/>
		<edge from-layer="1193" from-port="1" to-layer="1194" to-port="1"/>
		<edge from-layer="1194" from-port="2" to-layer="1195" to-port="1"/>
		<edge from-layer="1195" from-port="2" to-layer="1206" to-port="0"/>
		<edge from-layer="1196" from-port="0" to-layer="1197" to-port="0"/>
		<edge from-layer="1197" from-port="1" to-layer="1198" to-port="1"/>
		<edge from-layer="1198" from-port="2" to-layer="1201" to-port="0"/>
		<edge from-layer="1198" from-port="2" to-layer="1200" to-port="0"/>
		<edge from-layer="1199" from-port="0" to-layer="1200" to-port="1"/>
		<edge from-layer="1200" from-port="2" to-layer="1201" to-port="1"/>
		<edge from-layer="1201" from-port="2" to-layer="1202" to-port="0"/>
		<edge from-layer="1202" from-port="2" to-layer="1205" to-port="0"/>
		<edge from-layer="1203" from-port="0" to-layer="1204" to-port="0"/>
		<edge from-layer="1204" from-port="1" to-layer="1205" to-port="1"/>
		<edge from-layer="1205" from-port="2" to-layer="1206" to-port="1"/>
		<edge from-layer="1206" from-port="2" to-layer="1207" to-port="2"/>
		<edge from-layer="1207" from-port="3" to-layer="1208" to-port="0"/>
		<edge from-layer="1208" from-port="1" to-layer="1225" to-port="0"/>
		<edge from-layer="1208" from-port="1" to-layer="1226" to-port="0"/>
		<edge from-layer="1209" from-port="0" to-layer="1210" to-port="0"/>
		<edge from-layer="1210" from-port="1" to-layer="1211" to-port="1"/>
		<edge from-layer="1211" from-port="2" to-layer="1214" to-port="0"/>
		<edge from-layer="1212" from-port="0" to-layer="1213" to-port="0"/>
		<edge from-layer="1213" from-port="1" to-layer="1214" to-port="1"/>
		<edge from-layer="1214" from-port="2" to-layer="1222" to-port="0"/>
		<edge from-layer="1215" from-port="0" to-layer="1216" to-port="1"/>
		<edge from-layer="1216" from-port="3" to-layer="1221" to-port="0"/>
		<edge from-layer="1217" from-port="0" to-layer="1221" to-port="1"/>
		<edge from-layer="1218" from-port="0" to-layer="1221" to-port="2"/>
		<edge from-layer="1219" from-port="0" to-layer="1220" to-port="1"/>
		<edge from-layer="1220" from-port="3" to-layer="1221" to-port="3"/>
		<edge from-layer="1221" from-port="4" to-layer="1222" to-port="1"/>
		<edge from-layer="1222" from-port="2" to-layer="1224" to-port="0"/>
		<edge from-layer="1223" from-port="0" to-layer="1224" to-port="1"/>
		<edge from-layer="1224" from-port="2" to-layer="1225" to-port="1"/>
		<edge from-layer="1225" from-port="2" to-layer="1234" to-port="0"/>
		<edge from-layer="1226" from-port="2" to-layer="1233" to-port="0"/>
		<edge from-layer="1227" from-port="0" to-layer="1228" to-port="0"/>
		<edge from-layer="1228" from-port="1" to-layer="1229" to-port="1"/>
		<edge from-layer="1229" from-port="2" to-layer="1232" to-port="0"/>
		<edge from-layer="1230" from-port="0" to-layer="1231" to-port="0"/>
		<edge from-layer="1231" from-port="1" to-layer="1232" to-port="1"/>
		<edge from-layer="1232" from-port="2" to-layer="1233" to-port="1"/>
		<edge from-layer="1233" from-port="2" to-layer="1234" to-port="1"/>
		<edge from-layer="1234" from-port="2" to-layer="1236" to-port="0"/>
		<edge from-layer="1235" from-port="0" to-layer="1236" to-port="1"/>
		<edge from-layer="1236" from-port="2" to-layer="1243" to-port="0"/>
		<edge from-layer="1237" from-port="0" to-layer="1239" to-port="1"/>
		<edge from-layer="1238" from-port="0" to-layer="1239" to-port="2"/>
		<edge from-layer="1239" from-port="3" to-layer="1242" to-port="0"/>
		<edge from-layer="1240" from-port="0" to-layer="1241" to-port="1"/>
		<edge from-layer="1241" from-port="3" to-layer="1242" to-port="1"/>
		<edge from-layer="1242" from-port="2" to-layer="1243" to-port="1"/>
		<edge from-layer="1243" from-port="2" to-layer="1246" to-port="0"/>
		<edge from-layer="1244" from-port="0" to-layer="1245" to-port="0"/>
		<edge from-layer="1245" from-port="1" to-layer="1246" to-port="1"/>
		<edge from-layer="1246" from-port="2" to-layer="1249" to-port="0"/>
		<edge from-layer="1247" from-port="0" to-layer="1248" to-port="0"/>
		<edge from-layer="1248" from-port="1" to-layer="1249" to-port="1"/>
		<edge from-layer="1249" from-port="2" to-layer="1250" to-port="1"/>
		<edge from-layer="1250" from-port="2" to-layer="1253" to-port="0"/>
		<edge from-layer="1250" from-port="2" to-layer="1252" to-port="0"/>
		<edge from-layer="1250" from-port="2" to-layer="1256" to-port="0"/>
		<edge from-layer="1251" from-port="0" to-layer="1252" to-port="1"/>
		<edge from-layer="1252" from-port="2" to-layer="1256" to-port="1"/>
		<edge from-layer="1252" from-port="2" to-layer="1253" to-port="1"/>
		<edge from-layer="1253" from-port="2" to-layer="1267" to-port="0"/>
		<edge from-layer="1254" from-port="0" to-layer="1255" to-port="0"/>
		<edge from-layer="1255" from-port="1" to-layer="1266" to-port="0"/>
		<edge from-layer="1256" from-port="2" to-layer="1259" to-port="0"/>
		<edge from-layer="1257" from-port="0" to-layer="1258" to-port="0"/>
		<edge from-layer="1258" from-port="1" to-layer="1259" to-port="1"/>
		<edge from-layer="1259" from-port="2" to-layer="1261" to-port="0"/>
		<edge from-layer="1260" from-port="0" to-layer="1261" to-port="1"/>
		<edge from-layer="1261" from-port="2" to-layer="1264" to-port="0"/>
		<edge from-layer="1262" from-port="0" to-layer="1263" to-port="0"/>
		<edge from-layer="1263" from-port="1" to-layer="1264" to-port="1"/>
		<edge from-layer="1264" from-port="2" to-layer="1265" to-port="0"/>
		<edge from-layer="1265" from-port="1" to-layer="1266" to-port="1"/>
		<edge from-layer="1266" from-port="2" to-layer="1267" to-port="1"/>
		<edge from-layer="1267" from-port="2" to-layer="1270" to-port="0"/>
		<edge from-layer="1268" from-port="0" to-layer="1269" to-port="0"/>
		<edge from-layer="1269" from-port="1" to-layer="1270" to-port="1"/>
		<edge from-layer="1270" from-port="2" to-layer="1273" to-port="0"/>
		<edge from-layer="1271" from-port="0" to-layer="1272" to-port="0"/>
		<edge from-layer="1272" from-port="1" to-layer="1273" to-port="1"/>
		<edge from-layer="1273" from-port="2" to-layer="1274" to-port="0"/>
		<edge from-layer="1273" from-port="2" to-layer="1290" to-port="0"/>
		<edge from-layer="1274" from-port="2" to-layer="1277" to-port="0"/>
		<edge from-layer="1275" from-port="0" to-layer="1276" to-port="0"/>
		<edge from-layer="1276" from-port="1" to-layer="1277" to-port="1"/>
		<edge from-layer="1277" from-port="2" to-layer="1280" to-port="0"/>
		<edge from-layer="1278" from-port="0" to-layer="1279" to-port="0"/>
		<edge from-layer="1279" from-port="1" to-layer="1280" to-port="1"/>
		<edge from-layer="1280" from-port="2" to-layer="1281" to-port="0"/>
		<edge from-layer="1281" from-port="1" to-layer="1282" to-port="0"/>
		<edge from-layer="1282" from-port="2" to-layer="1285" to-port="0"/>
		<edge from-layer="1283" from-port="0" to-layer="1284" to-port="0"/>
		<edge from-layer="1284" from-port="1" to-layer="1285" to-port="1"/>
		<edge from-layer="1285" from-port="2" to-layer="1288" to-port="0"/>
		<edge from-layer="1286" from-port="0" to-layer="1287" to-port="0"/>
		<edge from-layer="1287" from-port="1" to-layer="1288" to-port="1"/>
		<edge from-layer="1288" from-port="2" to-layer="1289" to-port="0"/>
		<edge from-layer="1289" from-port="2" to-layer="1290" to-port="1"/>
		<edge from-layer="1290" from-port="2" to-layer="1296" to-port="0"/>
		<edge from-layer="1290" from-port="2" to-layer="1293" to-port="0"/>
		<edge from-layer="1290" from-port="2" to-layer="1292" to-port="0"/>
		<edge from-layer="1291" from-port="0" to-layer="1292" to-port="1"/>
		<edge from-layer="1292" from-port="2" to-layer="1293" to-port="1"/>
		<edge from-layer="1292" from-port="2" to-layer="1296" to-port="1"/>
		<edge from-layer="1293" from-port="2" to-layer="1307" to-port="0"/>
		<edge from-layer="1294" from-port="0" to-layer="1295" to-port="0"/>
		<edge from-layer="1295" from-port="1" to-layer="1306" to-port="0"/>
		<edge from-layer="1296" from-port="2" to-layer="1299" to-port="0"/>
		<edge from-layer="1297" from-port="0" to-layer="1298" to-port="0"/>
		<edge from-layer="1298" from-port="1" to-layer="1299" to-port="1"/>
		<edge from-layer="1299" from-port="2" to-layer="1301" to-port="0"/>
		<edge from-layer="1300" from-port="0" to-layer="1301" to-port="1"/>
		<edge from-layer="1301" from-port="2" to-layer="1304" to-port="0"/>
		<edge from-layer="1302" from-port="0" to-layer="1303" to-port="0"/>
		<edge from-layer="1303" from-port="1" to-layer="1304" to-port="1"/>
		<edge from-layer="1304" from-port="2" to-layer="1305" to-port="0"/>
		<edge from-layer="1305" from-port="1" to-layer="1306" to-port="1"/>
		<edge from-layer="1306" from-port="2" to-layer="1307" to-port="1"/>
		<edge from-layer="1307" from-port="2" to-layer="1310" to-port="0"/>
		<edge from-layer="1308" from-port="0" to-layer="1309" to-port="0"/>
		<edge from-layer="1309" from-port="1" to-layer="1310" to-port="1"/>
		<edge from-layer="1310" from-port="2" to-layer="1313" to-port="0"/>
		<edge from-layer="1311" from-port="0" to-layer="1312" to-port="0"/>
		<edge from-layer="1312" from-port="1" to-layer="1313" to-port="1"/>
		<edge from-layer="1313" from-port="2" to-layer="1314" to-port="0"/>
		<edge from-layer="1314" from-port="2" to-layer="1316" to-port="0"/>
		<edge from-layer="1315" from-port="0" to-layer="1316" to-port="1"/>
		<edge from-layer="1316" from-port="2" to-layer="1317" to-port="0"/>
	</edges>
	<meta_data>
		<MO_version value="2022.1.0-6910-173f328c53d"/>
		<Runtime_version value="2022.1.0-6910-173f328c53d"/>
		<legacy_path value="False"/>
		<cli_parameters>
			<caffe_parser_path value="DIR"/>
			<compress_fp16 value="True"/>
			<data_type value="FP32"/>
			<disable_nhwc_to_nchw value="False"/>
			<disable_omitting_optional value="False"/>
			<disable_resnet_optimization value="False"/>
			<disable_weights_compression value="False"/>
			<enable_concat_optimization value="False"/>
			<enable_flattening_nested_params value="False"/>
			<enable_ssd_gluoncv value="False"/>
			<extensions value="DIR"/>
			<framework value="onnx"/>
			<freeze_placeholder_with_value value="{}"/>
			<generate_deprecated_IR_V7 value="False"/>
			<input value="input_seq,input_mask,pos_mask"/>
			<input_model value="DIR/model.onnx"/>
			<input_model_is_text value="False"/>
			<input_shape value="[1,512],[1,1,512],[1,1,512,512]"/>
			<k value="DIR/CustomLayersMapping.xml"/>
			<keep_shape_ops value="True"/>
			<layout value="input_seq(nc),input_mask(ndc),pos_mask(ndcw)"/>
			<layout_values value="{'input_seq': {'source_layout': 'nc', 'target_layout': None, 'is_input': True}, 'input_mask': {'source_layout': 'ndc', 'target_layout': None, 'is_input': True}, 'pos_mask': {'source_layout': 'ndcw', 'target_layout': None, 'is_input': True}}"/>
			<legacy_ir_generation value="False"/>
			<legacy_mxnet_model value="False"/>
			<log_level value="ERROR"/>
			<mean_scale_values value="{}"/>
			<mean_values value="()"/>
			<model_name value="text-to-speech-en-0001-duration-prediction"/>
			<output value="['embeddings', 'duration']"/>
			<output_dir value="DIR"/>
			<placeholder_data_types value="{}"/>
			<placeholder_shapes value="{'input_seq': (1, 512), 'input_mask': (1, 1, 512), 'pos_mask': (1, 1, 512, 512)}"/>
			<progress value="False"/>
			<remove_memory value="False"/>
			<remove_output_softmax value="False"/>
			<reverse_input_channels value="False"/>
			<save_params_from_nd value="False"/>
			<scale_values value="()"/>
			<silent value="False"/>
			<source_layout value="()"/>
			<static_shape value="False"/>
			<stream_output value="False"/>
			<target_layout value="()"/>
			<transform value=""/>
			<use_legacy_frontend value="False"/>
			<use_new_frontend value="False"/>
			<unset unset_cli_parameters="batch, counts, disable_fusing, disable_gfusing, finegrain_fusing, input_checkpoint, input_meta_graph, input_proto, input_symbol, mean_file, mean_file_offsets, move_to_preprocess, nd_prefix_name, pretrained_model_name, saved_model_dir, saved_model_tags, scale, tensorboard_logdir, tensorflow_custom_layer_libraries, tensorflow_custom_operations_config_update, tensorflow_object_detection_api_pipeline_config, tensorflow_use_custom_operations_config, transformations_config"/>
		</cli_parameters>
	</meta_data>
</net>
